07. Neural Networks Practice/First_Net.pt (torch_old, 124101 bytes, 4 tensors)

fc1.weight f4 [10, 3072]
00000000: bb8a 0ebd 9981 7cbc 9735 fdbc 47c5 c9bc
00000010: f710 fb3b cf6a 44bd c6b2 07bd 494a 08bd
00000020: d4ef 75bb b351 b6bc f031 07bd e3ad 43bd
00000030: 05de ef3c 9b8f 81bc abdf 03bb 629c d03b
00000040: ddbc 323c 77d6 c4bc 9471 ffbc 63f9 f5bc
00000050: 4500 44bd 0277 1abd 02ae 0fbd 0b2b 28bd
00000060: a7e9 45bd e46e 35bd bd4d 90bc 14b8 6b3c
00000070: d409 643c 597a 67bd 2e8e 1fbd 865a 21bd
00000080: dc56 53bc f4fa 8dbc 0db7 c9bc ffc4 803c
00000090: 02b6 743c a52a 55bc e43b 423c 0efb 353c
000000a0: 5e64 143d 7bdc f03c 33b0 9abc 7b7b 88bc
000000b0: bb5b b63c 437f 17bc f98f ff3b 3f99 0b3d
000000c0: 1c97 a53c 6e2c f53c c91e ed3b c2de c2bb
000000d0: 7aaa 68bb 919d 0f3d 7f90 1b3d 37bd f03b
000000e0: 9fb5 853b 92c3 a53b 52d0 d33c f3c8 dc3c
000000f0: 7fe4 133b ff39 10bc cd1e 50bc de60 d5bc
00000100: fd4b 80bd 21b5 03bd d609 61bc 5d03 783b
00000110: 92a7 3f3b dc9a 1abd 6e04 183c 6e67 563a
00000120: a78a 3e3c 4b67 073d 264c 823b b390 cc3c
00000130: 0996 533d 3d5d a83c 9895 f7bc cf0e 96bb
00000140: 0a6d ff3c 83bc 0d3d a5f7 eb3c d124 1b3c
00000150: 9543 64bc dddc cb3c d336 083d a8cf d939
00000160: 70ee 00bd 3cae 10bc 192b 0abc 4068 e03b
00000170: 542b 8ebc e3a8 e1bc faab 7abc b347 1ebd
00000180: d488 1bbd cd66 a7bc 2d13 cfbc ea1c 03bc
00000190: b01c 22bd 7f3b 77bd 1ad2 17bd 4a9b 8a3b
000001a0: d316 fd3c caad 40bc 8ff4 303b 1a8b e63c
000001b0: 7f85 0e3d 788f 8d3c 741a 0cbd 6d4d c0bc
000001c0: b7a1 2cbb ddcb 9b3b 0732 a33b 750e 093d
000001d0: 0970 cb3c b049 f53b 2b1c 513d 5107 67bb
000001e0: 4481 0ebd 35d4 093c 536a 66bc 0ac2 5fbc
000001f0: db69 3e3b c2cc d9bc 2768 a2bc 8fbc 8bbc
00000200: ffa0 9fbc e780 6cbc ceb8 5fbc 4233 eabc
00000210: 5ac5 44bb 9eae 23bd 4ec1 6ebc 2f34 073c
00000220: 56bb 4ebc 6f75 e1bb 8f88 973c 796a d83c
00000230: 1ec7 1c3d 5af8 ed3c 210d 15ba 8141 d93b
00000240: 6c27 7cbb e1aa 89bb b98f 3cbd ab1c 033d
00000250: e795 823c ec7b 7e3c 7be2 3a3d 76d8 b03c
00000260: 9db6 e1bc 3673 febc 5e54 f5bc 5ed9 02bc
00000270: 765e b7bb 1c81 d6bc fbda ffbc 750f 0fbd
00000280: a268 f0bc 41bd ca3c 548c a03c 69b9 7d3c
00000290: 4556 993c a323 c1bb d5d3 d9bc 38c0 8abc
000002a0: 715e babc ccd7 3a3b 7276 1a3b 84c1 e83c
000002b0: eb19 ca3c f7f5 dbbc 1341 5bbd fc38 12ba
000002c0: fd63 c73c fb34 883c fb80 acbc 9289 bcbc
000002d0: 1af4 af3c a64e 1abc 11dc 8cbc d971 d2bc
000002e0: ac3b 12bd ddba 81bd 3e07 9dbd b785 033b
000002f0: f7d0 f9bc 23a9 19bd 5e05 18bd cfb0 2ebd
00000300: 4a7f a5bb 87ec ff3c efce fc3c ff16 333c
00000310: 53a3 49bc 4af2 a03b 1b7b 78bb cb99 92bc
00000320: 583d 65bc e07c 07bd 61b9 bdbb 3df8 9b3c
00000330: 4bc0 4f3c 8d8a 83bd e9ae 85bd 2491 3e3c
00000340: 1f28 573b b0af e03c 126f eebc 2110 2ebd
00000350: 7efc 15bd c620 97bc 6b94 0cbc 6d6f f6bc
00000360: 7528 c2bc 629c 0bbd d867 58bd fd76 223c
00000370: 23d7 38bd 83b1 31bd 00fc 45bd 9dca 34bd
00000380: c166 71bc cae3 b63c e866 3f3d 72df 563d
00000390: 3124 413c b226 2bbd ecbe e1bc 7feb 26bd
000003a0: b9c5 b2bc 27b1 22bc 29f8 d6bc 8d6a 0dbc
000003b0: ce0e 60bd 0bb7 8cbd f05f 8cbd 79ae 53bd
000003c0: 9638 33bd 684d c8bc 4115 3abd ff31 58bd
000003d0: efd9 fdbc bce9 bdbc ba14 11bd dbdb 3cbd
000003e0: 186b 3abd def3 edbc c272 22bd dba5 5dbc
000003f0: 20a3 b7bc a35f 0bbd ffea 053c d78f 653b
-0.034800272 -0.015411758 -0.030909343 -0.024630202 0.0076619345 -0.047953423 -0.033129476 -0.03327397
-0.0037526982 -0.022255754 -0.03300661 -0.047773253 0.029280672 -0.015815547 -0.002012233 0.0063662985
0.010909286 -0.024028046 -0.031182088 -0.030026143 -0.04785182 -0.03771115 -0.035078056 -0.041056674
-0.04831853 -0.044295207 -0.017615194 0.014387149 0.013918359 -0.056513164 -0.038953952 -0.03939297
-0.012899127 -0.017331578 -0.024623418 0.015718935 0.014935972 -0.0130106555 0.011855099 0.011107219
0.03622853 0.029402008 -0.018882846 -0.016660443 0.022260537 -0.00924665 0.0077991453 0.034081694
0.020213656 0.029928412 0.007236336 -0.005946965 -0.0035502003 0.035062376 0.0379796 0.007346775
0.004080489 0.005058714 0.02585617 0.026951289 0.0022566614 -0.00880289 -0.012702656 -0.026047166
-0.062644936 -0.03215516 -0.013735255 0.0037843802 0.0029244167 -0.03774534 0.0092784 0.00081788644
0.011629737 0.033057492 0.0039763628 0.024971342 0.051656757 0.020552272 -0.030222699 -0.004579402
0.031179924 0.034603607 0.02880461 0.009469227 -0.013932128 0.02488559 0.03325541 0.0004154418
-0.03147739 -0.008830603 -0.008433127 0.006848365 -0.017354645 -0.027546352 -0.0152997915 -0.038642596
-0.037972286 -0.020434761 -0.025277698 -0.008002499 -0.03957814 -0.060359474 -0.037065603 0.0042299377
0.030894672 -0.011760185 0.0027001237 0.0281425 0.03479528 0.017280325 -0.034204915 -0.02347442
-0.0026341507 0.004754527 0.004980329 0.033461053 0.024833696 0.007485591 0.051052254 -0.0035252164
-0.034791246 0.0084124105 -0.014063436 -0.013657102 0.0029054794 -0.026586894 -0.019825054 -0.017057685
-0.019485949 -0.01443503 -0.013654901 -0.028588895 -0.0030024857 -0.03996145 -0.014572455 0.008252188
-0.012617907 -0.0068804543 0.018497733 0.026417958 0.03827583 0.029049087 -0.0005685855 0.006630123
-0.0038475646 -0.0042012786 -0.046035502 0.03200976 0.01594062 0.015532475 0.045626145 0.021587592
-0.027552897 -0.031060796 -0.029947456 -0.007986395 -0.0055959774 -0.026184611 -0.031232348 -0.03492685
-0.029346768 0.024748446 0.019598164 0.0154861 0.018717894 -0.005894141 -0.026590267 -0.01693736
-0.022750111 0.0028509973 0.0023569134 0.028412588 0.024670562 -0.026850684 -0.053528856 -0.00055779493
0.02433967 0.016626826 -0.021057596 -0.023014817 0.021478701 -0.009418165 -0.01719478 -0.025689052
-0.03570144 -0.063344695 -0.07667397 0.0020068714 -0.03049515 -0.037514817 -0.037114494 -0.042649087
-0.0050505744 0.031240715 0.030860392 0.010930776 -0.012307006 0.0049116956 -0.0037915173 -0.0178956
-0.013991676 -0.033078074 -0.005789921 0.019039268 0.012680124 -0.06422911 -0.06527502 0.011631284
0.003283031 0.027427524 -0.029105697 -0.04249585 -0.03661775 -0.018448245 -0.0085803075 -0.030082429
-0.023700932 -0.034084685 -0.052833408 0.009916064 -0.045127045 -0.04338218 -0.04833603 -0.04413854
-0.014733971 0.022325415 0.046729 0.052459188 0.011788414 -0.04178495 -0.027556859 -0.04075193
-0.021822797 -0.009929932 -0.026241379 -0.008631361 -0.05470162 -0.0687085 -0.06854236 -0.051680062
-0.043755136 -0.024450973 -0.045430426 -0.052782055 -0.030987708 -0.023182742 -0.035420157 -0.046108108
-0.04551229 -0.029046949 -0.039660223 -0.013528313 -0.022416651 -0.034026753 0.008173703 0.0035028362

fc1.bias f4 [10]
00000000: 451e 26bf c851 66be ebf9 6dbe 6641 38bf
00000010: 7bfc 463e 3ae4 513e 6f08 3a3f 5c1f c93e
00000020: 1a8f 283c 7deb 98be
-0.6488994 -0.22492135 -0.23239867 -0.7197479 0.19432251 0.20497218 0.7266912 0.39281738
0.010288024 -0.29867163

out.weight f4 [10, 10]
00000000: 0d33 233f 0001 863e 5a1b 503f e23b 833e
00000010: db21 39be 9d83 813f 7d5a 83bf 6490 813f
00000020: 5945 9c3f 1917 9abf 75ff 0040 c999 2140
00000030: f73e 9fbf 7b19 853f fd59 44bd 5775 16bf
00000040: dbe2 26bf 54a8 23bf 75e8 babf f392 33bf
00000050: b1d6 babd ed60 0bbf 055d c53d 5ab0 e0bf
00000060: 219d 013f d70a 813f 91e6 223f ac80 953e
00000070: 7c70 bbbe 2841 84be 1fcd 89be 279d c73d
00000080: 6e07 be3d a187 11be 4804 cebf cfac 42bf
00000090: 4e86 b83f ed32 3d3f c464 f13e 59ae 7c3e
000000a0: c636 38bf 4309 97bf 2054 90bf 1379 96bf
000000b0: 34b5 9c3e 41cd a13f c108 03bf aeec c03e
000000c0: 1ded 12bf 08ef 3e3f b1a4 35bf 7a4b fa3e
000000d0: 68a3 31bf d09e e6be 8c72 f2be 250f 31bf
000000e0: 4e6f 903f a5c5 993f b1b6 883f 371a 313f
000000f0: 8480 26bf b0af e2bf 3d69 8abf d1f4 05bf
00000100: 9652 aabf dfcd 71be e9a3 d73f 4402 dcbf
00000110: ca0c 6b3e a993 843f 1235 bbbf 428b 82bf
00000120: e181 953d ea27 fc3f 5f2c 0d3f c35c 963f
00000130: 8215 c0be c7b0 843f 3e80 19bf d650 083f
00000140: a439 9c3e 69d5 733e 2e45 3c3f 7540 1cbd
00000150: d51e d63f 8cb6 a6bf 3ed2 90bf dc72 03bf
00000160: 082e d53f ee18 0ec0 dcf1 ca3f ee4c 393f
00000170: 304e b73f dfde 973f 34cf f3bd 2773 7cbf
00000180: 5b92 c5bf 1016 4dbf 62ef 9cbf de72 253f
0.6374977 0.26172638 0.81291735 0.25631624 -0.18079321 1.011829 -1.026199 1.012219
1.2208663 -1.2038299 2.0155919 2.5250113 -1.244109 1.0398401 -0.047937382 -0.58772796
-0.65189904 -0.63928723 -1.460219 -0.701461 -0.091229804 -0.5444477 0.09636883 -1.7553818
0.50630385 1.0081433 0.63633066 0.2919973 -0.36609256 -0.2583096 -0.26914307 0.09746771
0.09278761 -0.14211895 -1.6095057 -0.76044935 1.4415987 0.7390583 0.4714719 0.24675883
-0.7195858 -1.1799701 -1.1275673 -1.1755699 0.30606997 1.2640764 -0.5118523 0.37680572
-0.57393056 0.7458348 -0.70954424 0.4888571 -0.69389963 -0.4504304 -0.47353017 -0.69163734
1.1283967 1.2013441 1.0680753 0.69180626 -0.6503985 -1.7709866 -1.0813366 -0.52326685
-1.3306453 -0.2361369 1.6846896 -1.7188191 0.22954097 1.0357562 -1.4625571 -1.0198748
0.07300163 1.9699681 0.5514583 1.1747059 -0.3751641 1.0366448 -0.5996131 0.53248346
0.30512726 0.23811878 0.7354306 -0.03814741 1.6728159 -1.3024459 -1.1314161 -0.51347136
1.6654673 -2.2202716 1.585506 0.7238301 1.4320736 1.186489 -0.11904755 -0.9861321
-1.5435289 -0.8011179 -1.2260554 0.646284

out.bias f4 [10]
00000000: 83ad 36bf c041 1c3e 92bf 873e d2c9 c73e
00000010: 2eb0 543f bb6d f3be 6f6f 9a3f 3759 a3bf
00000020: 48fd d33e 9bfb 99be
-0.7135851 0.15259457 0.26513344 0.39021164 0.8308133 -0.47544655 1.2065257 -1.2761601
0.41404176 -0.30074772
