07. Neural Networks Practice/Second_Net.pt (torch_old, 124124 bytes, 4 tensors)

fc1.weight f4 [10, 3072]
000000 7c be 3b 3d 36 bb 6d 3d ba 21 62 3d 14 c3 96 3d
       0.045835957 0.058039866 0.055207945 0.07361427
000010 61 74 07 3d a0 29 4a 3d 9d 4a 10 3d b3 c7 10 3d
       0.033069972 0.049356103 0.035227407 0.035346698
000020 3d fa 21 3c 3a d7 3a 3d 7b ff 05 3d 9e c8 68 3c
       0.009886322 0.045615412 0.03271435 0.014207987
000030 dd 99 ac ba 45 e1 30 bc e5 7a b7 bc 46 22 0a bd
       -0.0013168413 -0.010795896 -0.022397468 -0.033724092
000040 7e b7 50 bc 11 48 e9 3b fd e9 d2 3c 50 02 1c 3d
       -0.01273906 0.0071191867 0.02574634 0.038088143
000050 f7 47 0e 3d a9 e0 7f 3d 02 40 6a 3d e8 7f 27 3d
       0.0347366 0.062470112 0.05718995 0.040893465
000060 b2 00 45 3d 74 96 a9 3d 0a 87 7f 3d ab d5 33 3d
       0.048096366 0.0828065 0.062384643 0.04390494
000070 84 23 6b 3d 40 52 16 3d 40 41 31 3d b5 48 72 bb
       0.057406917 0.036699533 0.043275118 -0.0036969606
000080 fb 64 25 3d e7 88 ce 3c c9 fb 78 3d af 80 15 3d
       0.040379506 0.025211764 0.060786996 0.036499675
000090 12 73 a6 3c 15 a5 d4 3c c0 7e af 3c 29 92 14 3d
       0.020318542 0.025957623 0.021422744 0.0362722
0000a0 2d a7 43 3c d2 94 0f 3c e0 79 8a 3c 40 5d 4a 3c
       0.011941713 0.008763509 0.016903818 0.012351334
0000b0 ba 45 59 bc 87 34 46 3c 1e 11 4a bc 30 7a b2 3b
       -0.013261253 0.012097484 -0.012333183 0.005446695
0000c0 87 d3 20 3c c2 8a 8e 3b 8a bc 48 bc 4f a2 12 3d
       0.009816057 0.0043500373 -0.012251982 0.03579932
0000d0 b2 ad 05 3d 6f f8 f3 3c a4 12 25 3c b8 ee 6b bc
       0.032636352 0.029781548 0.010075245 -0.014400177
0000e0 45 5c f6 3c 51 02 10 3d 26 75 8b 3c 8e d5 99 3c
       0.030073294 0.03515846 0.017023634 0.018778589
0000f0 21 c1 6a 3d da 1c 38 3d 0f bb 0e 3d 99 5a 29 3d
       0.05731309 0.04494939 0.03484636 0.041346166
000100 bc 36 c7 3d 07 66 4d 3d e1 0d f9 3c 17 e1 57 3c
       0.09727237 0.05014613 0.030402126 0.013176224
000110 46 55 5b 3b 52 84 a7 3a 0b ae f6 3b fe d1 1d 3d
       0.0033467575 0.0012780523 0.0075280718 0.038530342
000120 1b 03 65 bb 8d 50 18 3c 10 7a 8d 3c 3f c7 f4 bb
       -0.0034944478 0.009296549 0.017270118 -0.007470041
000130 cb 7f 41 bb 98 5e 79 bc 2f 24 90 3c 40 6f eb 3c
       -0.0029525633 -0.015220307 0.017595379 0.028739572
000140 c9 28 f6 3b 2a d2 e3 3a 71 11 52 b8 07 3d 9d 3c
       0.007512186 0.0017381359 -5.0084145e-05 0.01919414
000150 9a ee 00 3d c0 1e e0 3c 91 04 0f 3c d1 3b 1b bc
       0.03147755 0.027358413 0.008729116 -0.009474711
000160 b2 b5 4c 3c a8 79 61 ba 7f 56 79 3c 92 69 9c 3c
       0.012494491 -0.0008601197 0.015218376 0.019093309
000170 7b 30 2d 3d 87 86 78 3d bb 5c 33 3d 41 ff 88 3d
       0.042282563 0.06067517 0.043789607 0.06689311
000180 83 a4 68 3d 06 fe 5a 3d e5 5e 4c 3c 88 51 f3 3b
       0.056797516 0.053464912 0.0124737965 0.0074254908
000190 1a ce 8e 3c 4d 70 1f 3c 1b b4 7f 3c 43 a1 c8 3c
       0.017432261 0.009731364 0.015606905 0.024490958
0001a0 03 90 c9 bb 8e 83 45 3b 35 64 1b 3c bc c0 60 bb
       -0.0061512007 0.0030138227 0.00948434 -0.0034294566
0001b0 67 61 25 bc 0c ea f3 ba b0 7f 30 3d 6e 20 36 3d
       -0.010094023 -0.001860918 0.043090522 0.04446452
0001c0 58 2c 9e 3c 68 00 0c bc b3 46 aa 3a 6c b4 c0 3c
       0.019308254 -0.008545019 0.0012991041 0.023523532
0001d0 df 5f c2 3c 8c c7 bb 3c ca ea 11 bc 9c 5a 01 3c
       0.023727356 0.0229223 -0.008906076 0.007895138
0001e0 69 ce ff 3c 85 94 ad 3b 35 e0 1b 3c c4 8c a6 3b
       0.031226354 0.005297246 0.009513904 0.0050826985
0001f0 59 ad e2 3c 20 2f 5d 3d 71 09 43 3d 07 83 96 3d
       0.02767055 0.05400002 0.047616426 0.0734921
000200 2e 8f 6b 3d 65 33 fd 3c 86 b8 c3 3b e6 28 78 3c
       0.057509594 0.030908296 0.0059729246 0.01514647
000210 28 8b 40 3c 8e e9 9a 3c a8 cd c3 3c 84 e5 3e bb
       0.011751927 0.018910196 0.023901775 -0.0029128501
000220 3d 22 cd 3a 7f bd 0a 3d 7c a4 ab 3b d1 56 c9 bb
       0.0015650463 0.033872124 0.005238114 -0.0061443825
000230 e6 c6 72 3c d1 2f 79 3b 53 ed 28 3c 81 62 fd ba
       0.014817929 0.0038022886 0.010310489 -0.0019331725
000240 bf 61 9b 3c 97 79 ca bb 45 41 4c bb 81 b1 e5 3a
       0.018967507 -0.0061790454 -0.0031166833 0.0017524214
000250 ee 43 38 3c 7f 5c 4b 3b 9e 44 27 bd 41 92 0f bd
       0.011246664 0.0031030474 -0.040836923 -0.035051588
000260 1d cf db ba ac bb a7 3b 89 e8 28 bc 51 14 93 bc
       -0.0016770099 0.005118808 -0.010309347 -0.017954024
000270 cc 99 92 3a 6c a5 1c 3d 6c 0d 5b 3d e5 f9 22 3d
       0.0011184751 0.038243696 0.053479597 0.0397891
000280 70 cf 77 3d d7 a9 ab 3c 50 37 21 3b 19 e2 bf bb
       0.060500562 0.02095501 0.002459962 -0.0058558104
000290 00 16 b7 bb de fb c7 ba 3a b7 62 3c bf 4b 09 3c
       -0.0055873394 -0.0015257557 0.01383763 0.008379876
0002a0 7a 2b 97 ba 19 04 1b 3c a9 ad 97 3c a2 c1 aa bc
       -0.0011533343 0.009461426 0.018515425 -0.020844284
0002b0 e9 31 1f 3d cd 6e 32 3d 17 79 34 3d fd 19 12 3c
       0.038865957 0.0435627 0.044060793 0.008917329
0002c0 ff 9e 7b 3c 38 e3 37 3c 35 25 57 3c 64 94 bd 3c
       0.015357732 0.011223607 0.013131429 0.023142047
0002d0 bf d2 ed bb 06 40 fc ba 60 22 78 ba 4d 91 e3 3b
       -0.007257789 -0.0019245155 -0.00094655715 0.0069448114
0002e0 ec ac f6 3c fa 78 25 3d 21 cf 0e 3d 02 60 46 bc
       0.030111752 0.040398575 0.034865502 -0.012107851
0002f0 ba 0d 9b bc a2 67 b0 3c 7b f0 d1 3c ad ca 0d 3d
       -0.018927444 0.021533791 0.025627365 0.034617115
000300 a9 4d e8 3c fe 1d 23 bc 6a 51 ae bc b9 ca 30 bc
       0.028357344 -0.009955881 -0.021279056 -0.01079052
000310 3d 4a cb bc f8 92 95 bb a9 39 2a 3c 19 05 49 b9
       -0.024815673 -0.004564639 0.010389724 -0.00019170753
000320 8d fb 8a 3c bb da cb 3b 71 03 0d 3c bc 00 4d bc
       0.016965652 0.006221143 0.0086067775 -0.012512382
000330 f4 b7 69 3d f6 27 95 3d fd 1c 34 3d b7 bc 47 3d
       0.057060197 0.072830126 0.043972958 0.048763957
000340 06 32 4a 3d d5 de 10 3d 2d 6a 36 3d a2 26 52 3d
       0.049364112 0.03536876 0.04453485 0.051306374
000350 6a c5 1f 3d cb bd 1c 3d 6c 21 04 3d c6 61 e6 3c
       0.039006628 0.03826694 0.032258436 0.028122794
000360 1c 1e 53 bc a8 e0 1f 3c 45 68 98 b9 ac 78 82 bc
       -0.012885597 0.009758152 -0.00029069386 -0.015926681
000370 e9 29 e2 3c 05 de 11 3d 34 d7 3f 3d 58 cf 0c 3d
       0.027607875 0.035612125 0.046836093 0.034377426
000380 63 7c df 3c 47 cf 0e ba 2e e3 fc bc 9f cf 0c bc
       0.027280992 -0.0005447757 -0.030870046 -0.008594423
000390 f9 63 f3 bb ca b7 8c bc 43 cb 8a bc 6e 1d 41 bb
       -0.007427689 -0.017177481 -0.016942626 -0.0029467004
0003a0 38 bb c8 3b db 79 5b 3d 60 e5 65 3d 03 53 8b 3d
       0.006125834 0.053583007 0.056126952 0.068029426
0003b0 e5 58 90 3d 06 f2 af 3d a7 29 8c 3d a2 7e 45 3d
       0.07048205 0.08591084 0.06843882 0.04821647
0003c0 e1 ef 7a 3d ea 44 a6 3d 7a 08 b6 3d 2b 36 30 3d
       0.061263923 0.08118613 0.088883355 0.04302041
0003d0 fb 45 3f 3d a7 38 06 3d 64 91 60 3c 2a b2 ca 3c
       0.046697598 0.03276887 0.013706539 0.024743158
0003e0 5a 36 39 bc a9 a1 90 3c 7e 85 0c 3d 7e 09 c5 bc
       -0.011304462 0.01765521 0.034306996 -0.024052378
0003f0 8e 14 51 3b 7f 84 1a 3d 84 3a 03 bc 3e e8 dd 3b
       0.003190312 0.037724014 -0.008009557 0.00677207

fc1.bias f4 [10]
000000 e2 7c de be ba 8b c0 bd 68 33 87 bf 5b 9b 28 be
       -0.43454653 -0.09401651 -1.0562563 -0.16465513
000010 ae 3b 67 bf b8 7a 25 bf 76 a3 89 bf f9 f6 ec be
       -0.9032544 -0.6464038 -1.0753009 -0.46282175
000020 bb 31 19 bf 09 23 0a bf
       -0.5984151 -0.5395971

out.weight f4 [10, 10]
000000 cc 62 fe be 7a 61 82 3e 46 a4 67 3f f8 75 49 3f
       -0.4968475 0.25464994 0.90485036 0.7869563
000010 d2 b2 49 3f 1a 72 52 bc b2 6f 25 bf 11 ee de be
       0.78788483 -0.012844587 -0.6462356 -0.43541005
000020 69 71 33 3f 8e 86 3a bf 2c 60 6a bf 5b 3d 7d bf
       0.70094925 -0.72861564 -0.91552997 -0.98921746
000030 4e 31 c2 3e e5 f8 25 bf d4 c5 a7 3f 8e 4f 6d 3f
       0.37928241 -0.6483291 1.3107247 0.92699516
000040 d4 7c 81 3f ea a6 3b 3f aa ab 99 be 54 60 a2 bc
       1.011622 0.73301566 -0.30013782 -0.019821323
000050 9a 37 b6 3e 37 84 29 3f 90 f3 8b 3d 56 0f 49 3f
       0.35589296 0.6621737 0.06833565 0.78539026
000060 fb 25 5d be d2 e7 47 bf b1 ff 07 3f 27 3d 05 be
       -0.2159652 -0.78088105 0.5312453 -0.13011609
000070 ab 40 7a be 95 d8 b9 3d 47 8a a0 3e 52 6d ee bd
       -0.24438731 0.09074513 0.31355497 -0.11641945
000080 ae c8 cb be 45 85 31 3f f8 c9 b4 be 62 6c 80 3e
       -0.39801544 0.6934398 -0.3531034 0.2508269
000090 0c 36 ba be 91 c1 7d 3f 25 4b 56 3e 6f 04 55 3e
       -0.3636936 0.99123484 0.20927103 0.20802473
0000a0 28 04 aa 3e 93 90 28 3f bc 2e ae be 10 65 9c bd
       0.33206296 0.658456 -0.3402003 -0.07636464
0000b0 6a 28 43 bf 49 33 9e bf dc 9b 2c 3f 93 10 31 be
       -0.7623354 -1.2359401 0.6742532 -0.17291479
0000c0 9d 77 df 3e be 90 29 3e 57 f3 bf 3e 4a 1e 7d 3e
       0.43645945 0.16559121 0.3749034 0.24718586
0000d0 6c e3 66 bf e3 75 36 3f e6 5b 4f bf 39 58 4a 3f
       -0.9019077 0.7127363 -0.809996 0.7904087
0000e0 0a af 1c be 5c 07 da 3e 3d 5d 18 3f de ca 4e 3e
       -0.15301147 0.4258374 0.5951727 0.20194575
0000f0 f6 1d 14 3f 13 89 f2 3e a3 ad b5 bf a1 bb 8d bf
       0.57858217 0.47370204 -1.4193615 -1.1072885
000100 e1 5b 74 bf 6e 33 84 bf fc 96 da bd 57 57 82 3f
       -0.95452696 -1.0328195 -0.10673329 1.0182904
000110 79 7c 33 bf ad ef 9b 3e 8e 9e a5 3e 17 3c 41 bf
       -0.70111805 0.30456296 0.3234753 -0.75482315
000120 f9 ad 09 3f e1 3c a2 bd e3 de 97 bf e0 eb 4f bf
       0.53781086 -0.07921768 -1.1864895 -0.8121929
000130 b8 24 de 3e e2 67 55 bf 0d 9d 9a 3f 46 00 b0 3e
       0.4338739 -0.8336164 1.2079178 0.3437521
000140 2c 24 33 bf e1 1f 1b 3f be 22 5b 3f ef ec 86 be
       -0.6997707 0.6059552 0.8559989 -0.2635264
000150 08 de 1a 3f 43 42 80 3f c1 ea 8f bf 0e 49 1f bf
       0.6049504 1.0020221 -1.1243516 -0.6222085
000160 b3 ea e4 be c2 3c b4 bf 63 54 96 bf 2a 21 a5 bf
       -0.4471031 -1.4081042 -1.1744503 -1.2900746
000170 a1 9c 4a 3f 69 4a 86 bf d5 89 5c 3f 54 a0 db 3e
       0.79145247 -1.0491458 0.86147815 0.42895758
000180 a4 d3 3e be b5 46 12 bf 15 db 30 bf 2d 96 17 3f
       -0.18635422 -0.5713914 -0.6908429 0.59213525

out.bias f4 [10]
000000 a7 72 94 3d 84 43 bc be 6d e9 0a be 9b 36 de bd
       0.07248431 -0.3677026 -0.13565607 -0.10850259
000010 af 6b ef 3c da ff a5 be 64 d6 cb 3e 6c 3c 0b 3e
       0.029226152 -0.32421762 0.39812005 0.13597268
000020 cd 46 2d 3f 0b 29 33 3f
       0.6768616 0.699845
