07. Neural Networks Practice/Seminar_2_1.pt (torch_old, 68163 bytes, 14 tensors)

linear1.weight f4 [20, 784]
-0.0343368 -0.015339402 -0.033706438 -0.03298104 -0.00084678293 0.0011187955 -0.010140193 0.018822866
-0.040874094 -0.017012462 0.012902387 0.014664694 8.20044e-05 -0.028188016 -0.03253111 0.02585963
0.020421684 -0.016607989 -0.034612153 0.013476989 -0.014113211 -0.010334998 0.005214153 0.015515126
-0.044247504 0.019142197 -0.040602904 0.0034397093 -0.013016712 0.010565602 0.014805808 -0.00066121906
0.013411981 -0.032412387 0.0068824105 -0.0071402583 -0.019868728 0.021635614 -0.03110538 -0.041167684
-0.014196308 0.016262436 0.0022482593 0.027153213 0.00010108338 -0.038951643 -0.008346862 -0.019283323
0.0034501213 -0.008837508 -0.009494022 0.0031441858 -0.039201852 -0.021313151 0.02081442 -0.03547227
0.027085863 -0.010745482 0.0012336529 0.03283757 0.004324342 0.008222918 -0.0338645 -0.01639384
-0.03185049 -0.023790468 0.0040319967 0.002060664 -0.020910831 0.02943599 -0.00011267888 -0.026681727
-0.00739138 0.025147287 -0.03990555 0.015853124 -0.028349316 -0.0012457524 -0.009808345 0.023049172
-0.011837543 0.005203317 -0.023519762 0.019604042 0.015260837 -0.016279891 -0.026070643 0.008918655
0.0007931351 -0.0024626676 -0.010687496 0.028084029 0.023272682 -0.03466939 0.02477519 0.027602345
0.01751042 -0.018060753 0.021431273 -0.016468605 -0.016430525 0.024169188 -0.024353428 -0.00048321433
-0.004738446 0.0066334503 -0.016640557 -0.035076298 -0.0039236574 0.0015574766 -0.035648365 -0.01964833
-0.011936875 -0.019323079 -0.0040265773 -0.027812703 -0.023491168 -0.03355335 0.0073151872 -0.009716256
0.02509498 -0.03402175 -0.040526718 -0.038853332 0.0050488226 0.024778945 -0.025763089 -0.028796686
0.032505527 -0.027089579 -0.005418893 -0.022231873 0.02830306 -0.005657764 -0.034109615 0.020855175
0.015034833 0.00555963 -0.021197163 0.009426965 0.013874039 -0.02532456 -0.014552743 -0.032826297
-0.008716726 -0.040017255 0.0223171 0.017184379 -0.008442573 -0.011565707 0.0049311332 0.017738102
-0.025128886 -0.029020824 0.026997969 0.027914206 -0.00022874483 0.025450094 -0.0064466465 0.023853008
0.030574007 -0.027191624 -0.020312058 -0.011629455 -0.018263895 -0.018013055 -0.035208486 -0.014348164
-0.037752025 -0.0313087 -0.011419702 -0.0044087474 0.017915059 -0.01817783 0.01884602 0.021170283
0.021497885 -0.01801435 -0.030164592 0.013531689 -0.0053680004 -0.03392732 0.031303525 -0.004913623
-0.025912952 0.0103710415 0.009489425 -0.022128193 -0.018620832 -0.008723091 -0.002020637 -0.023430087
-0.004301137 -0.027708035 -0.021932578 0.025920251 -0.014661812 -0.02844212 0.03341881 0.007695031
0.014869671 -0.0019657612 -0.006846555 -0.03117868 -0.030669468 0.02616147 -0.0022588775 -0.022711983
0.00045205597 -0.025550868 0.013327728 -0.031128947 0.018118165 -0.004101926 -0.017994931 -0.020819725
-0.005705238 -0.020918071 -0.00781525 0.02792128 0.018146494 0.023409251 -0.0012348152 -0.010024617
0.012706755 0.0029264372 -0.02761543 0.023756362 -0.0053431997 0.012433959 0.029717444 -0.011719556
-0.011760853 0.023671178 0.024647383 0.024326421 -0.03527505 0.030988306 0.02014504 0.013565964
-0.01971637 -0.029118149 -0.028398668 -0.008010459 -0.010301193 0.02792816 0.009971484 0.014605567
-0.03650058 -0.008870366 -0.01447507 -0.009776476 -0.017151425 0.0235131 0.02295521 -0.0101630315
00000000: bfa4 0cbd 1d52 7bbc c30f 0abd 2117 07bd
00000010: a4fa 5dba 8ca4 923a 0d23 26bc 6932 9a3c
00000020: 986b 27bd b85d 8bbc 8964 533c 2f44 703c
00000030: c7f9 ab38 8eea e6bc 573f 05bd 93d7 d33c
00000040: 604b a73c 7a0d 88bc 79c5 0dbd 97ce 5c3c
00000050: 193b 67bc 2054 29bc 7cdb aa3b 2833 7e3c
00000060: df3c 35bd 19d0 9c3c 3b4f 26bd bf6c 613b
00000070: 0c44 55bc 591b 2d3c 0f94 723c a955 2dba
00000080: edbd 5b3c dac2 04bd d885 e13b d4f8 e9bb
00000090: bec3 a2bc 2c3d b13c b6d0 febc 729f 28bd
000000a0: a297 68bc cd38 853c 8857 133b 6a70 de3c
000000b0: bafc d338 c28b 1fbd 47c1 08bc 0ff8 9dbc
000000c0: 6e1b 623b 32cb 10bc d08c 1bbc af0e 4e3b
000000d0: 1f92 20bd eb98 aebc 0183 aa3c 5f4b 11bd
000000e0: 2ce3 dd3c d10d 30bc 86b2 a13a b080 063d
000000f0: 36b3 8d3b 6bb9 063c 80b5 0abd 604c 86bc
00000100: a975 02bd 3ae4 c2bc d71e 843b 340c 073b
00000110: 314d abbc bf23 f13c 034e ecb8 a393 dabc
00000120: 6433 f2bb af01 ce3c 0174 23bd 69de 813c
00000130: d33c e8bc 8448 a3ba 2eb3 20bc 9ed1 bc3c
00000140: 41f2 41bc 9680 aa3b 84ac c0bc a898 a03c
00000150: 9708 7a3c 685d 85bc 1a92 d5bc 8d1f 123c
00000160: 65ea 4f3a b564 21bb 9b1a 2fbc 7a10 e63c
00000170: 5aa6 be3c 7e01 0ebd 57f5 ca3c 501e e23c
00000180: 0372 8f3c 25f4 93bc a390 af3c 2be9 86bc
00000190: 4f99 86bc 76fe c53c d780 c7bc ee57 fdb9
000001a0: f744 9bbb 6a5d d93b c751 88bc 2aac 0fbd
000001b0: 0692 80bb 3e24 cc3a 0504 12bd 89f5 a0bc
000001c0: e292 43bc 6f4b 9ebc 61f1 83bb 77d7 e3bc
000001d0: 8d70 c0bc 3d6f 09bd 3db4 ef3b ee30 1fbc
000001e0: fd93 cd3c 645a 0bbd 58ff 25bd ac24 1fbd
000001f0: 9870 a53b 37fd ca3c 1d0d d3bc 07e7 ebbc
00000200: 8424 053d f7ea ddbc f890 b1bb 9e1f b6bc
00000210: d2db e73c c464 b9bb 86b6 0bbd 79d8 aa3c
00000220: a954 763c 8f2d b63b aca5 adbc 8f73 1a3c
00000230: f04f 633c 7475 cfbc a16e 6ebc de74 06bd
00000240: 99d0 0ebc 22e9 23bd 5ad2 b63c 41c6 8c3c
00000250: b852 0abc 177e 3dbc 5895 a13b 7f4f 913c
00000260: 18db cdbc 14bd edbc d82a dd3c 55ac e43c
00000270: 39db 6fb9 b77c d03c 643e d3bb 6267 c33c
00000280: 5776 fa3c f8c0 debc 7965 a6bc 7889 3ebc
00000290: 2a9e 95bc 1d90 93bc c636 10bd 9014 6bbc
000002a0: dea1 1abd 8d3d 00bd b419 3bbc 4177 90bb
000002b0: 9ac2 923c ace9 94bc f862 9a3c 4d6d ad3c
000002c0: 551c b03c d592 93bc bc1b f7bc 04b4 5d3c
000002d0: 0de6 afbb 60f7 0abd 2038 003d 7502 a1bb
000002e0: 6647 d4bc 4deb 293c 8979 1b3c 2f46 b5bc
000002f0: b78a 98bc 4ceb 0ebc aa6c 04bb 74f0 bfbc
00000300: 8df0 8cbb f6fb e2bc f3ab b3bc b556 d43c
00000310: 1938 70bc 73ff e8bc 2ae2 083d 9926 fc3b
00000320: ec9f 733c 00d4 00bb 1159 e0bb 6e6a ffbc
00000330: 893e fbbc 9450 d63c ad09 14bb 7b0e babc
00000340: ed01 ed39 0e50 d1bc 8b5c 5a3c 2202 ffbc
00000350: 8c6c 943c 7369 86bb 1b6a 93bc 218e aabc
00000360: 01f3 babb 605c abbc 890b 00bc 2bbb e43c
00000370: f5a7 943c c2c4 bf3c 86d9 a1ba 4b3e 24bc
00000380: fe2f 503c 78c9 3f3b c139 e2bc b49c c23c
00000390: 0216 afbb ceb7 4b3c ff71 f33c 6103 40bc
000003a0: 98b0 40bc 0fea c13c 4fe9 c93c 3448 c73c
000003b0: 927c 10bd 30db fd3c 3607 a53c c743 5e3c
000003c0: 3a84 a1bc 2f89 eebc 53a4 e8bc 4d3e 03bc
000003d0: 56c6 28bc 99c9 e43c 6f5f 233c 304c 6f3c
000003e0: a281 15bd 0355 11bc d828 6dbc 832d 20bc
000003f0: 2581 8cbc 8b9e c03c 910c bc3c d882 26bc

linear1.bias f4 [20]
-0.0060208538 0.052357282 -0.06230329 -0.118102774 0.2004734 -0.5037099 0.107632086 0.13492177
0.06305452 -0.06152692 0.028477466 0.04784146 -0.29410425 -0.13255218 -0.15057816 -0.036731753
0.019790797 0.07530183 -0.135161 0.0006493921
00000000: 954a c5bb 9774 563d bc31 7fbd dedf f1bd
00000010: e648 4d3e 22f3 00bf 366e dc3d ef28 0a3e
00000020: ba22 813d a703 7cbd 9349 e93c 68f5 433d
00000030: d594 96be c2bb 07be 2931 1abe 0974 16bd
00000040: 4f20 a23c d937 9a3d a567 0abe f73b 2a3a

batch_norm1.weight f4 [20]
0.67013025 0.57650715 0.5765518 0.33455306 0.37092534 0.41717267 0.48556077 0.6253808
0.5716925 0.763781 0.29120344 0.27542034 0.37462878 0.69041556 0.37981558 0.7991222
0.8547368 0.8203726 0.65036595 0.28560138
00000000: a88d 2b3f f995 133f e698 133f 8a4a ab3e
00000010: ede9 bd3e a897 d53e 6c9b f83e f518 203f
00000020: 715a 123f 2787 433f 9e18 953e e503 8d3e
00000030: 58cf bf3e 13bf 303f 3077 c23e 4693 4c3f
00000040: 08d0 5a3f f003 523f 627e 263f 583a 923e

batch_norm1.bias f4 [20]
0.09155237 0.23868899 0.0797331 0.041781753 -0.010789533 0.13502532 0.07954161 0.18123081
0.2241734 -0.00656955 -0.031759843 0.16983356 0.16583067 0.021979555 0.036521994 0.10275134
0.058488455 0.076070316 -0.022058582 0.040293284
00000000: cf7f bb3d e36a 743e 1c4b a33d 5823 2b3d
00000010: 95c6 30bc 1444 0a3e b6e6 a23d 9294 393e
00000020: b68d 653e 6145 d7bb 9c16 02bd d9e8 2d3e
00000030: 84cf 293e 780e b43c 1698 153d 4b6f d23d
00000040: 9791 6f3d c1ca 9b3d 33b4 b4bc 920a 253d

batch_norm1.running_mean f4 [20]
6e-45 0.59647447 0.21492557 0.6177776 0.16414809 0.5327455 0.4097445 0.28838173
0.30869102 0.47149286 6e-45 0.497944 0.58607876 0.28489393 0.67548436 6e-45
0.16643122 0.15125906 0.5604831 0.48295182
00000000: 0400 0000 8db2 183f 7315 5c3e ac26 1e3f
00000010: 7016 283e 0262 083f 08ca d13e c5a6 933e
00000020: c00c 9e3e 8367 f13e 0400 0000 84f2 fe3e
00000030: 4209 163f 9edd 913e 8bec 2c3f 0400 0000
00000040: f26c 2a3e a8e3 1a3e d27b 0f3f 7645 f73e

batch_norm1.running_var f4 [20]
6e-45 1.1444557 0.43091416 1.109628 0.35206398 1.2287265 1.1556802 0.5008479
0.56062317 1.0496942 6e-45 1.2474114 0.9112518 0.6363419 1.7456474 6e-45
0.3631895 0.35892397 1.4329585 1.358975
00000000: 0400 0000 867d 923f c8a0 dc3e 4a08 8e3f
00000010: bb41 b43e e946 9d3f 54ed 933f 9137 003f
00000020: 0085 0f3f 615c 863f 0400 0000 2dab 9f3f
00000030: cc47 693f 4ee7 223f 6071 df3f 0400 0000
00000040: f9f3 b93e e2c4 b73e 2f6b b73f e5f2 ad3f

linear2.weight f4 [20, 20]
0.024860792 -0.27585277 0.058986794 -0.079978906 -0.40783474 0.019886471 -0.18766987 -0.22352506
-0.05182529 0.10426765 -0.027409367 0.07642137 -0.0021155695 -0.33852005 0.054720268 -0.12432758
-0.06938644 -0.12727198 0.033225175 -0.676288 -0.22217132 -0.18726909 -0.09061504 0.014048864
-0.121828094 -0.30390388 -0.23161693 -0.07718184 0.008584442 -0.15084864 -0.19141075 0.055878118
-0.0027381694 0.020829787 -0.30603424 -0.019740915 -0.00019411733 -0.06829346 -0.21043095 0.11035859
-0.29329053 0.14244287 0.010548447 -0.12713185 0.1677803 -0.1091103 -0.023218028 -0.26780692
0.0877607 0.09574009 -0.27646545 0.016318487 -0.40895045 -0.32159272 0.087522045 0.018211575
-0.13751382 -0.13871565 0.072939694 0.38465244 -0.24943994 -0.123203166 -0.2695713 0.14668034
-0.4385016 -0.33516493 0.0420423 0.12760508 0.1827887 0.04773213 0.17685981 0.22577079
0.20726082 -0.057149984 -0.07084473 0.16893624 -0.0031423836 -0.1451542 0.027075496 -0.024864528
-0.26869473 -0.23275189 -0.10061628 0.10253396 -0.09860424 -0.27648395 -0.33309996 -0.013936145
0.046641752 -0.09204627 -0.20320013 -0.62275994 0.025312852 -0.12173557 -0.4171578 -0.21641412
0.012208292 -0.013670789 -0.10521467 0.1752038 0.096239395 -0.034341376 0.1941504 -0.091995694
0.35814258 0.080148965 0.26336104 0.11958622 0.03371254 -0.018878805 0.1516411 -0.1484483
0.33057222 -0.13153228 0.02466737 -0.069451176 0.08094785 -0.39867485 -0.27356315 -0.4092331
-0.25541952 0.029073441 -0.20926793 0.15726337 -0.45112482 -0.116395466 -0.34398982 -0.17343755
0.07352845 0.07404887 -0.23682371 0.21855666 -0.35626954 0.08525988 -0.036921088 0.010368293
-0.060990762 0.039481737 0.10124317 -0.07882759 0.111694254 -0.052523095 0.02864944 0.3714323
-0.21970594 0.060962494 -0.3759269 -0.3400305 -0.28933087 0.07544176 -0.3741769 -0.37505993
0.25162226 -0.122748226 0.0939632 0.08802012 -0.12513185 -0.056854896 -0.035170373 -0.027743261
0.07355263 0.06745695 -0.17497559 0.06023002 -0.19915281 -0.32133406 -0.29050452 -0.040022735
0.0438327 0.01642275 -0.16646256 -0.50253326 -0.11775752 -0.1586063 -0.17246494 -0.0658357
0.058095127 -0.15222639 -0.039831452 -1.0032881 -0.18018204 -0.03276918 0.023054905 0.29359347
-0.33604822 -0.081129044 -0.38382328 -0.5255812 -0.35774535 -0.0053669424 -0.21078537 -0.08053531
-0.052600723 0.038148332 -0.105156414 0.07517128 -0.20148937 -0.29019135 -0.09945053 -0.13906659
0.104511514 0.10540959 -0.180702 0.27603936 -0.18096536 -0.25998968 0.070873775 0.014783937
-0.20428361 0.11446969 0.1330075 -0.44450316 0.22202194 -0.0636909 -0.2979479 0.12774597
-0.15429038 -0.15785468 -0.07107836 -0.02020023 0.018982891 -0.015207917 -0.16706458 -0.05820426
-0.42499927 -0.09517734 0.057700608 0.1531727 -0.041012608 0.10178325 0.11208619 -0.12887207
-0.04269334 0.0014734005 -0.036288116 0.15033415 -0.18489033 0.10707634 0.1487722 -0.59717304
-0.19951154 0.13641463 -0.20791191 0.13805337 -0.29670548 -0.014013935 -0.07252261 0.12309529
0.039477944 0.016519077 -0.05366993 -0.36198702 0.01826395 0.015638627 -0.13987313 -0.11477665
00000000: dca8 cb3c 933c 8dbe 239c 713d fbcb a3bd
00000010: b7cf d0be f4e8 a23c 882c 40be c1e3 64be
00000020: c146 54bd 478a d53d 9c89 e0bc cf82 9c3d
00000030: 5ea5 0abb 8052 adbe 5c22 603d 759f febd
00000040: 7a1a 8ebd 9653 02be 1f17 083d 3621 2dbf
00000050: e180 63be 78c3 3fbe 6194 b9bd 352d 663c
00000060: 0281 f9bd 4a99 9bbe fd2c 6dbe 8311 9ebd
00000070: c2a5 0c3c 1178 1abe 2e01 44be 74e0 643d
00000080: dc72 33bb 3ba3 aa3c 85b0 9cbe b3b7 a1bc
00000090: f98b 4bb9 71dd 8bbd 367b 57be af03 e23d
000000a0: 2d2a 96be 8bdc 113e 65d3 2c3c da2e 02be
000000b0: 99ce 2b3e 3975 dfbd bc33 bebc fd1d 89be
000000c0: e2bb b33d 6113 c43d e18c 8dbe 59ae 853c
000000d0: f461 d1be cda7 a4be c23e b33d 7130 953c
000000e0: 6cd0 0cbe 7a0b 0ebe 6861 953d 2af1 c43e
000000f0: 2f6d 7fbe f151 fcbd 4005 8abe 5f33 163e
00000100: 4883 e0be bd9a abbe 8c34 2c3d e8aa 023e
00000110: f62c 3b3e c482 433d bd1a 353e 7530 673e
00000120: 2e3c 543e 1a16 6abd 0b17 91bd 9ffd 2c3e
00000130: 73f0 4dbb 4da3 14be 6ecd dd3c b2b0 cbbc
00000140: 5b92 89be 8356 6ebe e90f cebd 53fd d13d
00000150: 05f1 c9bd 4e8f 8dbe 148c aabe 6e54 64bc
00000160: 6c0b 3f3d c182 bcbd b213 50be 326d 1fbf
00000170: e65c cf3c 8050 f9bd b595 d5be aa9b 5dbe
00000180: 4a05 483c 72fb 5fbc ca7a d7bd a068 333e
00000190: 2919 c53d 8ba9 0cbd 5dcf 463e 3d68 bcbd
000001a0: 775e b73e 2425 a43d 42d7 863e 9fe9 f43d
000001b0: 2916 0a3d b9a7 9abc ce47 1b3e d502 18be
000001c0: c340 a93e 66b0 06be 3913 ca3c 6b3c 8ebd
000001d0: fdc7 a53d 1c1f ccbe 7810 8cbe 0087 d1be
000001e0: 59c6 82be 6d2b ee3c 554a 56be a609 213e
000001f0: d5f9 e6be bf60 eebd 6f1f b0be 9d99 31be
00000200: 1696 963d efa6 973d ea81 72be 51cd 5f3e
00000210: f668 b6be bb9c ae3d 913a 17bd c6df 293c
00000220: 73d1 79bd 9ab7 213d 9458 cf3d 5c70 a1bd
00000230: f5bf e43d 7522 57bd 3bb2 ea3c 602c be3e
00000240: 98fa 60be cfb3 793d 7e79 c0be 7a18 aebe
00000250: 2d23 94be 3681 9a3d 1d94 bfbe db07 c0be
00000260: a2d4 803e 6c63 fbbd c76f c03d e543 b43d
00000270: 9022 00be aee0 68bd cf0e 10bd d645 e3bc
00000280: c3a2 963d df26 8a3d cd2c 33be c1b3 763d
00000290: b7ee 4bbe e685 a4be 02bd 94be e1ee 23bd
000002a0: eb89 333d 0189 863c 2975 2abe 05a6 00bf
000002b0: db2a f1bd b169 22be a69a 30be ded4 86bd
000002c0: 28f5 6d3d 3ce1 1bbe 4e26 23bd bf6b 80bf
000002d0: a481 38be fa38 06bd a4dd bc3c e251 963e
000002e0: 830e acbe fc26 a6bd 7c84 c4be 7d8c 06bf
000002f0: 662a b7be 2ddd afbb 1fd8 57be b2ef a4bd
00000300: db73 57bd 6d41 1c3d 3f5c d7bd 66f3 993d
00000310: 3b53 4ebe f693 94be b8ac cbbd 7967 0ebe
00000320: 220a d63d fce0 d73d f209 39be 0855 8d3e
00000330: fc4e 39be 5e1d 85be 4526 913d 5338 723c
00000340: b92f 51be 166f ea3d 1e33 083e eb95 e3be
00000350: b859 633e 6070 82bd a18c 98be d7cf 023e
00000360: 4cfe 1dbe a8a4 21be 8891 91bd f47a a5bc
00000370: 0282 9b3c a12a 79bc fa12 2bbe 9767 6ebd
00000380: 8199 d9be 56ec c2bd 7957 6c3d 4ed9 1c3e
00000390: d6fc 27bd bd73 d03d 728d e53d 0af7 03be
000003a0: 36df 2ebd 1e1f c13a d9a2 14bd 32f1 193e
000003b0: e453 3dbe d74a db3d bd57 183e 55e0 18bf
000003c0: c14c 4cbe 47b0 0b3e dce6 54be dd5d 0d3e
000003d0: c8e9 97be b49a 65bc bc86 94bd 6219 fc3d
000003e0: a0b3 213d 0453 873c 00d5 5bbd 5d56 b9be
000003f0: 479e 953c 941c 803c e73a 0fbe 0510 ebbd

linear2.bias f4 [20]
-0.12001587 -0.17070238 -0.048248947 -0.081593156 -0.037501823 -0.05470996 -0.010338347 -0.047798615
-0.1209572 0.028745644 -0.081723124 0.028722648 0.025850913 0.004734519 -0.07566902 -0.13596812
0.08279574 0.021106593 0.06729929 -0.024399556
00000000: e1ca f5bd 9bcc 2ebe b0a0 45bd 501a a7bd
00000010: 839b 19bd 8d17 60bd 2c62 29bc 7bc8 43bd
00000020: 69b8 f7bd fc7b eb3c 745e a7bd c24b eb3c
00000030: 4bc5 d33c 0624 9b3b 5cf8 9abd 3a3b 0bbe
00000040: d090 a93d bce7 ac3c 36d4 893d 94e1 c7bc

batch_norm2.weight f4 [20]
0.8941268 1.5785613 1.6791363 1.7286319 1.5478936 1.7256144 1.1067568 1.144762
0.7704166 0.71394074 1.5539919 1.163055 1.2491187 1.7232094 1.2193863 1.3026533
1.2055448 1.3776202 1.63275 1.0164133
00000000: 7ee5 643f 4c0e ca3f f0ed d63f cf43 dd3f
00000010: 6121 c63f efe0 dc3f 35aa 8d3f 9087 923f
00000020: 063a 453f d2c4 363f 35e9 c63f fcde 943f
00000030: 1fe3 9f3f 2092 dc3f da14 9c3f 58bd a63f
00000040: 4b4f 9a3f dc55 b03f f4fd d03f d519 823f

batch_norm2.bias f4 [20]
0.044252124 -0.059121918 -0.07937686 0.04717042 0.042714886 0.0013083917 0.07823991 0.29553765
0.1683216 0.24165656 0.22275557 -0.015779503 0.059761528 0.13208416 -0.04161835 0.14576899
0.14139612 -0.018063415 0.025658071 -0.17136583
00000000: b741 353d d329 72bd 5690 a2bd c535 413d
00000010: cef5 2e3d 577e ab3a 3f3c a03d b650 973e
00000020: 7f5c 2c3e d174 773e 091a 643e 0444 81bc
00000030: 81c8 743d 1241 073e 0178 2abd 7744 153e
00000040: 25ca 103e baf9 93bc e030 d23c 867a 2fbe

batch_norm2.running_mean f4 [20]
0.05473364 0.041458547 0.12190744 0.12928483 0.07392993 0.21588007 0.10904094 0.105616026
0.046952236 0.123364106 0.10044023 0.15341397 0.122101575 0.2269158 0.053249005 0.12653744
0.11268211 0.15293181 0.29756588 0.10651226
00000000: 6230 603d 70d0 293d 9caa f93d 3e63 043e
00000010: 9368 973d aa0f 5d3e db50 df3d 374d d83d
00000020: fd50 403d 52a6 fc3d 9bb3 cd3d 8d18 1d3e
00000030: 6410 fa3d 9e5c 683e a11b 5a3d 0893 013e
00000040: e1c5 e63d 289a 1c3e 8e5a 983e 1a23 da3d

batch_norm2.running_var f4 [20]
0.014377738 0.005494041 0.04874376 0.05246701 0.019167455 0.13200985 0.041477162 0.044084
0.012175169 0.030642016 0.047221996 0.0766329 0.045263726 0.15254155 0.00869684 0.052483946
0.031927805 0.06889952 0.26240024 0.036555164
00000000: 9b90 6b3c 5b07 b43b 89a7 473d a6e7 563d
00000010: 1105 9d3c 972d 073e f5e3 293d 6d91 343d
00000020: 5c7a 473c f704 fb3c da6b 413d b6f1 9c3d
00000030: 7566 393d da33 1c3e 317d 0e3c 68f9 563d
00000040: bbc6 023d 311b 8d3d 5359 863e deba 153d

linear3.weight f4 [10, 20]
-0.7647719 -0.47393912 -0.54540724 -0.42987174 -0.4207441 -0.21402836 0.21311736 -0.47054073
-0.9275011 -0.77168703 -0.26877823 0.69666463 0.68403953 -0.5912536 -0.37476817 -0.286323
0.6890437 0.48639968 0.45983604 0.37063885 0.3310558 -0.42500702 0.32586345 -0.07483279
-0.1026919 -0.78020704 0.57546467 0.4976488 0.7554147 0.5791583 0.4870169 0.36299637
0.4748458 0.4291358 0.15327114 -0.45286942 0.09751434 0.35033658 -0.1710237 -0.7661323
0.29822192 0.5177014 0.32912245 -0.59701496 0.5453453 -0.5148617 -0.6667784 -0.6938936
0.5411402 0.18124864 -0.5852724 -0.31474555 -0.5018474 -0.7161931 0.71009815 -0.58883494
0.22045891 0.16807203 -0.45623702 0.585042 0.71339685 -0.30778447 0.5219075 0.4884134
-0.4740432 -0.42039707 0.7890698 -0.28052238 -0.3939069 -0.5502194 -0.39663225 0.6726533
-0.43338633 0.5198714 -0.57088083 -0.2676152 -0.09978475 -0.56861347 -0.7092235 -0.33577347
-0.54393023 0.31827757 -0.143821 0.26846224 0.44714275 -0.18690725 -0.15112118 0.47071168
-0.35046422 0.5497007 0.38751867 -0.8790125 -0.49208778 -0.34717217 0.5238305 0.4512337
0.34935755 -0.093642786 -0.5593767 -0.4970629 -0.620305 0.13382576 -0.5107424 0.4923026
0.46481788 0.31258702 -0.33741885 -0.027398486 0.7314729 -0.3028223 -0.021364095 -0.4133702
0.68958604 0.44794297 -0.34219214 0.5134919 -0.47136614 -0.81853217 -0.7268544 -0.61180717
0.04565881 0.46003026 -0.39518654 0.0624984 -0.18657339 -0.55036604 0.6589701 -0.77989924
-0.2738613 0.59034723 -0.53417313 -0.2555923 -0.56509674 -0.4048641 -0.070771426 0.6295553
-0.9447243 0.47005567 -0.7012902 0.76379573 -0.30317697 -0.6555283 -0.60174805 0.38704202
-0.488287 0.44102412 -0.7333913 -0.15617783 -0.49366328 -0.43416908 0.6028089 0.61392504
0.30078593 -0.66909826 0.69052154 -0.4572367 -0.40015495 0.2838453 0.096891746 -0.8120612
0.46488127 -0.3681011 -0.35374305 -0.3409348 -0.19339944 0.3976874 -0.6614859 0.6119513
-0.3874343 0.35545874 -0.3318894 -0.654417 -0.63821816 0.14910579 -0.40957436 0.5064906
0.28478494 -0.3367411 0.37421277 0.071515396 -0.3568365 -0.36392257 0.43822655 -0.32457593
-0.3720745 0.5297705 -0.42677602 -0.28123346 -0.4383187 -0.95878035 -0.41138288 -0.8545323
-0.6696305 0.5871318 -0.3320268 -0.20359004 -0.6806731 -0.30028573 0.44777903 0.8466679
00000000: 17c8 43bf 26a8 f2be cf9f 0bbf 2618 dcbe
00000010: c56b d7be 402a 5bbe 703b 5a3e b7ea f0be
00000020: b670 6dbf 488d 45bf 4d9d 89be 9d58 323f
00000030: 371d 2f3f 655c 17bf 9de1 bfbe ee98 92be
00000040: 2b65 303f 6109 f93e a16f eb3e 60c4 bd3e
00000050: 2580 a93e 859a d9be 93d7 a63e ef41 99bd
00000060: 2250 d2bd a6bb 47bf a751 133f d3cb fe3e
00000070: dc62 413f b843 143f 475a f93e a9da b93e
00000080: fd1e f33e b0b7 db3e 1cf3 1c3e 80de e7be
00000090: 99b5 c73d 515f b33e d620 2fbe 3f21 44bf
000000a0: 8bb0 983e 1488 043f bd82 a83e f9d5 18bf
000000b0: c09b 0b3f facd 03bf fdb1 2abf 03a3 31bf
000000c0: 2a88 0a3f 3e99 393e 69d4 15bf 5426 a1be
000000d0: 1279 00bf 6e58 37bf fec8 353f e3bd 16bf
000000e0: fbbf 613e 131b 2c3e e697 e9be 50c5 153f
000000f0: 2da1 363f ed95 9dbe bb9b 053f 5211 fa3e
00000100: cab5 f2be 493e d7be 7a00 4a3f a1a0 8fbe
00000110: 2aae c9be 2edb 0cbf 6213 cbbe 0233 2c3f
00000120: d0e4 ddbe 4b16 053f 3f25 12bf dc04 89be
00000130: f25b ccbd a790 11bf ac8f 35bf 80ea abbe
00000140: 033f 0bbf 47f5 a23e d045 13be e273 893e
00000150: e5ef e43e 9d64 3fbe 83bf 1abe 1f01 f13e
00000160: 0c70 b3be 2fb9 0c3f d968 c63e f706 61bf
00000170: eef2 fbbe 8dc0 b1be c119 063f 1b08 e73e
00000180: fede b23e cac7 bfbd 5033 0fbf 077f febe
00000190: 4fcc 1ebf 9f09 093e 04c0 02bf 160f fc3e
000001a0: 9cfc ed3e 680b a03e 2ac2 acbe ca72 e0bc
000001b0: cf41 3b3f 860b 9bbe c103 afbc 42a5 d3be
000001c0: b688 303f c858 e53e cf33 afbe 3574 033f
000001d0: e756 f1be 538b 51bf 2113 3abf 659f 1cbf
000001e0: bb04 3b3d 1689 eb3e e455 cabe 53fe 7f3d
000001f0: 180d 3fbe cae4 0cbf 44b2 283f 7aa7 47bf
00000200: 8c37 8cbe ff20 173f 92bf 08bf fedc 82be
00000210: 2eaa 10bf 594a cfbe 9cf0 90bd 892a 213f
00000220: 74d9 71bf 23ab f03e c187 33bf 1e88 433f
00000230: 033a 9bbe b4d0 27bf 290c 1abf 5f2a c63e
00000240: c100 fabe eacd e13e 88bf 3bbf 15ed 1fbe
00000250: 6fc1 fcbe 694b debe af51 1a3f 312a 1d3f
00000260: 9d00 9a3e 064a 2bbf 05c6 303f ee1a eabe
00000270: 1ce1 ccbe 2c54 913e 2e6f c63d 3ee3 4fbf
00000280: eb04 ee3e bf77 bcbe cf1d b5be 028f aebe
00000290: 810a 46be af9d cb3e 2457 29bf d7a8 1c3f
000002a0: ca5d c6be b0fe b53e 68ed a9be df87 27bf
000002b0: 4462 23bf 30af 183e bbb3 d1be 5ea9 013f
000002c0: 55cf 913e 5469 acbe d198 bf3e aa76 923d
000002d0: 46b3 b6be 0f54 babe 3b5f e03e d12e a6be
000002e0: 8d80 bebe 0a9f 073f 6382 dabe d5fd 8fbe
000002f0: 4f6b e0be a172 75bf c7a0 d2be a1c2 5abf
00000300: e86c 2bbf 454e 163f 6bff a9be e879 50be
00000310: 9840 2ebf 0dbf 99be 4b43 e53e 3abf 583f

linear3.bias f4 [10]
-0.07535289 0.37499928 -0.3922455 -0.16317572 0.117656015 -0.030656153 -0.1206082 0.065932706
0.17443605 0.009066244
00000000: 9e52 9abd e8ff bf3e 67d4 c8be 8917 27be
00000010: a3f5 f03d 9d22 fbbc 6f01 f7bd ba07 873d
00000020: 5d9f 323e 958a 143c
