07. Neural Networks Practice/Third_Net.pt (torch_old, 124801 bytes, 6 tensors)

fc1.weight f4 [10, 3072]
0	0xbcba9bfb	-0.022779455
1	0x398973e6	0.00026217027
2	0x3c87e9b8	0.016590938
3	0xbbb3e720	-0.0054901987
4	0x3b52e3a7	0.0032179148
5	0x3c344d08	0.011004694
6	0xbb45a2e8	-0.0030156914
7	0x3c54eb16	0.012995502
8	0x3a8f54bb	0.0010935286
9	0x3ca2d3ed	0.019876445
10	0x3c9fa7af	0.019489137
11	0x3cb81207	0.022469534
12	0x3c603d0f	0.0136864325
13	0xbc0d9699	-0.008641862
14	0x3b997311	0.0046829064
15	0xbbce2ba7	-0.006291825
16	0xbc1beb1c	-0.009516504
17	0x3c930573	0.017946934
18	0x3caddbd5	0.021222988
19	0x3ccd8c54	0.025091328
20	0x3b279285	0.002556951
21	0x3ca47c68	0.020078853
22	0xb9cf1855	-0.00039500245
23	0x3cdcf561	0.026972475
24	0x3b9bd621	0.0047557508
25	0x3c52d267	0.012867547
26	0x3be35763	0.0069379075
27	0x3cb86c0e	0.022512462
28	0x3b504b98	0.0031783339
29	0x3ca5ae52	0.020224724
30	0xbaf00cda	-0.0018314377
31	0xbceb9e22	-0.028761927
32	0xbc63f0cc	-0.013912391
33	0x3c3a6f7e	0.011379121
34	0xbbb7080f	-0.0055856775
35	0x3c154af5	0.009112109
36	0x3c9693d4	0.018381037
37	0x3b5dffa4	0.0033874298
38	0x3b88c366	0.004173684
39	0x3d041c1e	0.032253377
40	0x3cb85c12	0.02250484
41	0x3c911514	0.017710246
42	0xbb324d8b	-0.0027206864
43	0x3cdb8af3	0.026799655
44	0x3cd1d5b1	0.025614591
45	0x3cb0acf9	0.021566855
46	0x3c8ac1b5	0.01693807
47	0x3b0a7715	0.0021128107
48	0x3caab962	0.02084035
49	0xbb85b4ac	-0.0040803757
50	0x3cc0e67d	0.023547405
51	0x3ba03014	0.004888544
52	0x3c935b1b	0.017987778
53	0x3c0d6a95	0.008631368
54	0x3cc720bb	0.0243076
55	0x3b9af862	0.0047293166
56	0xbc4375a1	-0.0119299
57	0xbabf2921	-0.0014584401
58	0x3a330a3c	0.0006829833
59	0xbb45a083	-0.0030155487
60	0x3c90d76f	0.017680852
61	0x3cbd6317	0.023118539
62	0x3b9aa922	0.0047198692
63	0x3c5b9c4a	0.013403961
64	0x3c7a59e9	0.015280225
65	0x3ccd7a5e	0.025082763
66	0x3cddf12f	0.027092544
67	0x3ca8d380	0.020608664
68	0xbb5f1648	-0.003404038
69	0x3aedc872	0.0018141402
70	0xbb41ae7b	-0.0029553461
71	0x3c538240	0.012909472
72	0x3c00e79d	0.007867721
73	0x3cc738e0	0.024319112
74	0x3c3c432d	0.011490625
75	0xbbba3595	-0.005682657
76	0x3cc05e45	0.023482451
77	0xbb40178b	-0.0029310908
78	0x3bc2d7b7	0.0059461254
79	0x3d0037f5	0.031303365
80	0x3c825319	0.015908765
81	0x3b19013a	0.0023346678
82	0x3c4470e3	0.011989805
83	0x3c06eaa1	0.008234651
84	0x3c55b2cb	0.013043116
85	0xbb150d79	-0.0022743626
86	0x3c84a844	0.016193517
87	0xbc1d62f8	-0.0096061155
88	0x3c26b28b	0.010174404
89	0x3b6c1cea	0.0036027976
90	0x3c24efb3	0.010066914
91	0x3baf4a2e	0.005349419
92	0x3a8bceaa	0.0010666449
93	0x3cae1804	0.021251686
94	0x3c834a92	0.016026769
95	0x3cd2d336	0.025735479
96	0x3c9a12ac	0.018807732
97	0x3bed1b00	0.0072358847
98	0x3cd75bee	0.026288953
99	0x39c77761	0.00038045182
100	0x3bafa921	0.005360738
101	0x3ce8f3cf	0.02843657
102	0x3bf4b71d	0.007468118
103	0x3ced9b5d	0.029004747
104	0x3cac54ea	0.021036584
105	0x3cc829a5	0.02443392
106	0x3c9e9749	0.019359248
107	0xbb8a9fe9	-0.0042304886
108	0x3be5eb27	0.0070165577
109	0x3c771f43	0.015083137
110	0x3cc6f67d	0.024287457
111	0x3bd15d4b	0.006389295
112	0x3cc1992f	0.023632614
113	0x3b815ef1	0.0039480855
114	0x3c0d75d4	0.008634049
115	0x3af21347	0.001846888
116	0x3cc63dfc	0.024199478
117	0xbb29cd27	-0.0025909634
118	0xbbc9ee2a	-0.0061624246
119	0x3c1462fe	0.009056805
120	0xbbec4834	-0.0072107557
121	0xbb616e5d	-0.0034398057
122	0xbc11aec6	-0.008891767
123	0x3b92c066	0.004478502
124	0xbab34ce9	-0.0013679537
125	0x3c6975b6	0.014249256
126	0x39d71366	0.0004102245
127	0x3c9471e1	0.018120708
128	0x3c038819	0.008028054
129	0x3c9b1704	0.018931873
130	0x3cccec5b	0.025015047
131	0x3cb06d42	0.021536473
132	0x3d04248f	0.032261427
133	0x3d088596	0.033330522
134	0xbb3459c8	-0.0027519334
135	0x3c25f546	0.0101292785
136	0x3b9b8eeb	0.0047472618
137	0x3cdbc7e9	0.026828723
138	0x3cfdb23f	0.030968783
139	0x3b95bfed	0.0045699985
140	0x3d073bb0	0.033015907
141	0x3ca37b59	0.019956278
142	0x3caf1b5d	0.021375353
143	0x3b0d389b	0.0021548632
144	0x3ccafc55	0.024778524
145	0x3ca742c5	0.02041758
146	0x3d220d60	0.039563537
147	0x3c96ada9	0.018393354
148	0xbb10b50b	-0.0022080566
149	0xbc211f28	-0.009834088
150	0xbaad58fe	-0.0013225374
151	0x3b498b98	0.003075337
152	0x3c4b9058	0.012424551
153	0x3c1ce46c	0.009575944
154	0x3ca24c13	0.019811666
155	0xbc60ad26	-0.013713157
156	0x3bf1a25a	0.00737409
157	0x3bc91416	0.0061364276
158	0x3c8f7965	0.01751394
159	0x3cc60f4c	0.024177216
160	0x3d02219f	0.031770345
161	0x39153d07	0.00014232482
162	0x3c557a1c	0.013029601
163	0xbbc4ebba	-0.006009546
164	0x3c4082f1	0.011749969
165	0x3c1cfbe3	0.009581539
166	0x3b0661f8	0.0020505171
167	0x3c1352c2	0.008991899
168	0x3c8254c6	0.015909564
169	0x3cb689f5	0.02228258
170	0x3b3fee18	0.0029286202
171	0x3ce05b19	0.027387189
172	0x3d09a39d	0.0336033
173	0x3cdeabf9	0.027181612
174	0x3d232615	0.03983124
175	0x3cf47a92	0.029843602
176	0x3caaa6a6	0.020831417
177	0x3ce35adf	0.027753292
178	0x3b882804	0.004155161
179	0x3bd55d6b	0.0065113804
180	0xbc4a380e	-0.012342466
181	0x3c80b972	0.015713427
182	0x3ca0fb7b	0.019651165
183	0x3a4a00a3	0.00077057834
184	0x3b8b8fde	0.0042590937
185	0x3b2c706d	0.0026312128
186	0x3cf65978	0.030071959
187	0x3b19d1e9	0.0023471063
188	0x3983ae10	0.00025115954
189	0x3c8313a5	0.016000578
190	0x3c3c3642	0.011487545
191	0x3c2d84be	0.01059073
192	0x3c77b1aa	0.015118042
193	0xbc230e0e	-0.009952081
194	0xbc121c6b	-0.008917908
195	0x3c61ba0b	0.013777266
196	0x3ca180fe	0.019714829
197	0x3cdc3b48	0.026883736
198	0x3cd9a1c1	0.026566388
199	0xbb701a7f	-0.0036636887
200	0x3c958c10	0.018255264
201	0x3d23ecf6	0.040020905
202	0x3d1fabaa	0.03898207
203	0x3cdaee72	0.026725028
204	0x3d23140d	0.039814044
205	0x3d3efb81	0.04662657
206	0x3d14f8f7	0.036370244
207	0x3d07eb78	0.033183545
208	0x3d5de993	0.05417783
209	0x3d0675ac	0.032827064
210	0x3d24d99a	0.040246584
211	0x3d4461b5	0.047944743
212	0x3d120b6d	0.035655428
213	0x3bafac84	0.0053611416
214	0x3c80b802	0.015712742
215	0x3c27cbff	0.010241508
216	0x3cf1f268	0.029534534
217	0x3cd3b937	0.025845153
218	0x3bafde12	0.005367049
219	0xbc746049	-0.014915534
220	0x3ce32ad6	0.027730387
221	0x3d105127	0.035233643
222	0x3cbbc44a	0.022920746
223	0x3d137b44	0.036006227
224	0x3cee11c5	0.029061208
225	0x3c8ed941	0.01743758
226	0xbcb7a5f8	-0.022418007
227	0xbc4b64f9	-0.0124142105
228	0x3c66d270	0.014088258
229	0x3cf6d2cc	0.030129813
230	0x3b4b4ef3	0.00310224
231	0x3caff155	0.02147738
232	0x3cbd3370	0.023095816
233	0x3d182bc4	0.037151113
234	0x3d2391dc	0.039934024
235	0x3d18123d	0.03712677
236	0x3d074b49	0.033030782
237	0x3d5c3f1a	0.053771116
238	0x3d4a99d6	0.049463116
239	0x3d625265	0.05525436
240	0x3d1d1181	0.03834677
241	0x3d11aa3c	0.03556274
242	0x3d2b2390	0.041781962
243	0x3d53806a	0.051636137
244	0x3ca4ea59	0.020131277
245	0x3c43ebab	0.011958043
246	0x3c8da94e	0.017292645
247	0x398e2541	0.00027112107
248	0x3c7c7215	0.015408059
249	0x3cb428f3	0.021992182
250	0x3cfd0af8	0.03088902
251	0xbbf9de02	-0.0076253423
252	0xbc0a01f1	-0.008423314
253	0x3cca7102	0.02471209
254	0x3c663b6b	0.014052252
255	0x39da2f5f	0.00041615494

fc1.bias f4 [10]
0	0xbda900e7	-0.08252125
1	0xbe89c8e9	-0.26911095
2	0xbe80c9d7	-0.25153992
3	0xbe85daeb	-0.26143584
4	0xbe16956c	-0.14705437
5	0xbe5be830	-0.21475291
6	0xbd48778d	-0.048942138
7	0xba8bc9a4	-0.0010664952
8	0xbe369fdd	-0.1783442
9	0xbdaa909f	-0.083283655

fc2.weight f4 [10, 10]
0	0x3e52e966	0.20596847
1	0xbf517c5e	-0.81830394
2	0xbf780149	-0.9687696
3	0xbf5b8fe6	-0.85766447
4	0xbf60090b	-0.875138
5	0xbf83a776	-1.028548
6	0x3ec11d9a	0.37717897
7	0x3b4fefd7	0.003172865
8	0x3e938999	0.28815916
9	0x3de6f53c	0.112772435
10	0xbef5aef4	-0.4798504
11	0x3e2563a8	0.16151297
12	0x3eb23f48	0.34813905
13	0x3ea67307	0.32509634
14	0xbe04392d	-0.12912436
15	0xbeb3a0bf	-0.35083577
16	0xbc9349fe	-0.017979618
17	0xbf12ebd2	-0.57391083
18	0xbef419e7	-0.47676012
19	0xbed5cabc	-0.41756237
20	0x3eaabb27	0.3334591
21	0xbf78fa38	-0.97256804
22	0xbf573a8d	-0.84073716
23	0xbf7dba05	-0.9911197
24	0xbf68f06d	-0.9099186
25	0xbf21d558	-0.6321616
26	0x3e209069	0.15680088
27	0x3e8b755d	0.2723798
28	0x3ec94a7a	0.39314634
29	0x3e9a8600	0.3018036
30	0xbf5a9809	-0.8538824
31	0x3ed2edcb	0.41197047
32	0x3ebe5d2c	0.3718046
33	0x3f020e11	0.50802714
34	0x3e2a7d7c	0.16649431
35	0x3da01bb3	0.07817783
36	0xbf1036f8	-0.56333876
37	0xbf5a86ab	-0.85361737
38	0xbf549ca3	-0.8305151
39	0xbf29cc6d	-0.66327554
40	0xbf817695	-1.0114313
41	0x3eae377f	0.34026715
42	0x3e97625c	0.2956723
43	0x3ec74062	0.38916308
44	0x3e6f60ed	0.23376818
45	0x3f17ad82	0.59249127
46	0xbf5abd03	-0.8544466
47	0xbf432559	-0.76228863
48	0xbf7196ed	-0.9437092
49	0xbf7a83f9	-0.97857624
50	0xbe9a6b7a	-0.30160123
51	0x3e929058	0.2862575
52	0x3ea1c6df	0.3159704
53	0x3ed704b9	0.4199579
54	0x3ea718ba	0.32636052
55	0x3ef5475a	0.47906
56	0xbf27dd6a	-0.65572226
57	0xbe1118bb	-0.1416959
58	0xbe88d9c7	-0.2672865
59	0xbf0d6fd5	-0.5524877
60	0xbf840ab9	-1.0315772
61	0x3f08704b	0.53296345
62	0x3eef4970	0.46735716
63	0x3ee1815f	0.44044015
64	0x3f14ec6c	0.5817325
65	0x3e1c6dff	0.15276335
66	0xbf1aa486	-0.6040729
67	0xbf1530b4	-0.5827744
68	0xbf5329df	-0.82485765
69	0xbf6e1625	-0.9300254
70	0xbf841314	-1.0318322
71	0x3e8df400	0.2772522
72	0x3f040a67	0.5157837
73	0x3e97fecf	0.2968659
74	0x3eb88d2e	0.36045212
75	0x3f04acd2	0.518262
76	0xbf72f964	-0.9491179
77	0xbf251f19	-0.64500576
78	0xbf4263b7	-0.759334
79	0xbf6f3e99	-0.9345489
80	0xbf161e1f	-0.5863971
81	0xbd20fe27	-0.03930488
82	0x3e94ed8a	0.29087478
83	0x3efee0aa	0.4978078
84	0x3dcee4c0	0.10102224
85	0x3f39c138	0.72560453
86	0xbf459196	-0.7717527
87	0xbe46860c	-0.19387072
88	0xbed1289e	-0.408513
89	0xbf2322b9	-0.6372486
90	0x3e32f405	0.17475899
91	0xbf82574c	-1.0182891
92	0xbf69f133	-0.91383666
93	0xbf61ced4	-0.8820622
94	0xbf7f1fe0	-0.9965801
95	0xbf57058e	-0.8399285
96	0xbc7601c9	-0.015015074
97	0x3eebe253	0.4607111
98	0x3edfa842	0.43683058
99	0x3e9051f1	0.28187516

fc2.bias f4 [10]
0	0xbe9f15d6	-0.31071347
1	0xbc25b10e	-0.010113014
2	0xbf3fcf50	-0.7492571
3	0xbed35cb6	-0.4128167
4	0xbf2688e5	-0.65052634
5	0xbf0267c4	-0.50939584
6	0xbf6f14c5	-0.93391067
7	0xbf1e4479	-0.6182323
8	0xbe8ca0f1	-0.2746654
9	0xbf4e6640	-0.8062477

out.weight f4 [10, 10]
0	0xbe726642	-0.23671821
1	0x3d9fe95a	0.0780818
2	0xbe6c863b	-0.2309808
3	0x3ec882a9	0.39162186
4	0x3ea35cb3	0.3190666
5	0x3e216e34	0.15764695
6	0x3eb2707e	0.3485145
7	0x3eda6297	0.42653343
8	0x3e8ccd4e	0.27500385
9	0xbea510a4	-0.32239258
10	0xbe07c8ad	-0.13260145
11	0x3e59509b	0.21222155
12	0xbe71dbcc	-0.23619002
13	0x3ed5e997	0.41779777
14	0x3e83d91d	0.25751582
15	0x3d985130	0.0743736
16	0x3ec17e46	0.3779165
17	0x3ec7492c	0.38923013
18	0x3e1f690a	0.15567413
19	0xbea85dbb	-0.3288401
20	0x3eafdb0e	0.34346813
21	0xbdd88f65	-0.10574225
22	0x3ebc6db9	0.36802462
23	0xbcb9f604	-0.022700317
24	0xbe1ab3ea	-0.15107694
25	0xbe3fd425	-0.1873327
26	0xbdd6489b	-0.10463067
27	0xbd032dc7	-0.03202608
28	0xbdbdfdcf	-0.09276926
29	0x3e949a1e	0.29023832
30	0x3e928ab3	0.28621444
31	0xbda7bb52	-0.081900254
32	0x3e8c9bd4	0.27462637
33	0xbddc52a2	-0.107579485
34	0xbea4656f	-0.32108638
35	0xbe2cabb0	-0.16862369
36	0xbe575a8d	-0.21030636
37	0xbe18dc57	-0.14927803
38	0xbe13706f	-0.14398359
39	0x3e58e3a9	0.21180595
40	0x3ed346f2	0.41265064
41	0xbdfed620	-0.12443185
42	0x3ecdf1c3	0.40223512
43	0xbe17645d	-0.1478438
44	0xbea42468	-0.32059026
45	0xbe88ebfd	-0.26742545
46	0xbe8bad58	-0.27280688
47	0xbe28bf76	-0.16479287
48	0xbe2eb557	-0.17061363
49	0x3ebab3d8	0.36465335
50	0x3e8c425b	0.27394375
51	0xbe04167a	-0.12899199
52	0x3e972867	0.29523012
53	0xbe673dfc	-0.22582239
54	0xbee506d6	-0.44731778
55	0xbe4dd334	-0.20100099
56	0xbeaa8931	-0.33307794
57	0xbe860559	-0.26175955
58	0xbe2823b8	-0.16419876
59	0x3e7a966c	0.24471444
60	0x3ed72226	0.4201824
61	0xbdc2f6c2	-0.095197216
62	0x3ed1a302	0.40944678
63	0xbea06f3c	-0.31334865
64	0xbf227097	-0.6345305
65	0xbec8c9e2	-0.39216524
66	0xbf0b109e	-0.5432223
67	0xbef79326	-0.48354453
68	0xbe9de717	-0.3084037
69	0x3ebce77e	0.36895365
70	0x3eb92eec	0.3616861
71	0x3d0fdf7a	0.035125233
72	0x3ea4f717	0.32219765
73	0xbbcf505f	-0.0063267197
74	0xbe4eba40	-0.20188236
75	0xbe48f6d6	-0.1962541
76	0xbe227744	-0.15865809
77	0xbd7ada73	-0.061243486
78	0xbdb5347e	-0.08847903
79	0x3e9adee7	0.30248186
80	0xbf125152	-0.57155335
81	0x3e1b4858	0.15164316
82	0xbf15d957	-0.5853476
83	0x3ee09a17	0.4386756
84	0x3eb4fad9	0.35347632
85	0x3e4f9558	0.20271814
86	0x3edb4eba	0.428335
87	0x3eeed246	0.466448
88	0x3e997d0b	0.29978213
89	0xbf36c0d1	-0.71387964
90	0xbe0bf57e	-0.13667867
91	0x3e851060	0.25989056
92	0xbe9f0b6f	-0.3106341
93	0x3ef4cbe7	0.47811815
94	0x3ea41559	0.32047537
95	0x3dd0a045	0.10186819
96	0x3ec7fb07	0.39058706
97	0x3edcd0ba	0.43127996
98	0x3e56e093	0.20984106
99	0xbed01233	-0.40638885

out.bias f4 [10]
0	0xbe98bbf2	-0.2983089
1	0xbe77d8ea	-0.2420384
2	0x3d6b2209	0.057405505
3	0x3e72579d	0.23666234
4	0x3dd7f4bd	0.10544727
5	0x3e96f5d8	0.2948444
6	0x3e789fb0	0.24279666
7	0x3d6c8bfd	0.05775069
8	0xbea692b1	-0.32533792
9	0xbebe762c	-0.37199533
