07. Neural Networks Practice/Third_Net_08.pt (torch_old, 124801 bytes, 6 tensors)

fc1.weight f4 [10, 3072]
0	0xbc9dcac4	-0.019261725
1	0xbbc93b59	-0.006141108
2	0x3c8e939f	0.017404376
3	0x3ca4e4e5	0.020128677
4	0x3ca692c0	0.020333648
5	0x3ceb024f	0.028687624
6	0x3ca103a5	0.019655058
7	0x3ca4d1fc	0.02011966
8	0x3c78a748	0.015176602
9	0x3c9986ab	0.018740973
10	0x3c47cc55	0.012194713
11	0x3b7b8fdb	0.0038385305
12	0x3c559c21	0.013037712
13	0xbb88f4f0	-0.0041795895
14	0xbcba0a9a	-0.022710133
15	0xbc6bdfc4	-0.014396612
16	0x3c33871c	0.010957506
17	0xbb57c34e	-0.0032922807
18	0xba9b4d9c	-0.0011848691
19	0x3c082bff	0.008311271
20	0x3c8bbce0	0.017057836
21	0x3a999aa3	0.0011719059
22	0xbbb54960	-0.0055324286
23	0xbc1f4903	-0.009721997
24	0xba539b74	-0.00080721756
25	0x3c77c644	0.015122954
26	0x3cb1c8c6	0.021702182
27	0x3cfb7e65	0.030699918
28	0x3baec6fa	0.0053337784
29	0x3ce7b2d6	0.028283518
30	0xbcb838b5	-0.022487978
31	0xbcce7f20	-0.025207102
32	0x3b86b138	0.0041104816
33	0x3c748a4f	0.014925553
34	0x3d089a1d	0.0333501
35	0x3d11a536	0.035557948
36	0x3c879759	0.01655166
37	0x3cc86e04	0.024466522
38	0x3cb9cf4b	0.022681853
39	0x3b1c1dc7	0.002382146
40	0x3cdfc512	0.02731565
41	0x3cce1834	0.025158025
42	0x3ca974c8	0.020685568
43	0x3b4b2555	0.0030997593
44	0x3c8bf23a	0.017083276
45	0x3c9efa4c	0.01940646
46	0xbb8fd813	-0.0043897717
47	0x3cbfe9bc	0.023426883
48	0x3ccc59c0	0.02494514
49	0x3cc348a2	0.023838345
50	0x3ce594a2	0.028024975
51	0x3d021bdf	0.03176486
52	0x3cd22394	0.02565173
53	0xb71705c3	-9.001643e-06
54	0x3b53f805	0.0032343876
55	0x3c707a26	0.01467756
56	0xba761891	-0.0009387816
57	0xbb317679	-0.0027078672
58	0x3c952847	0.018207682
59	0x3bf9609b	0.007610393
60	0x3c6f3f80	0.014602542
61	0x3d22e148	0.039765626
62	0xbc017c77	-0.00790321
63	0x3adc533c	0.0016809474
64	0x3d131829	0.035911713
65	0x3d1eb80e	0.038749747
66	0x3d4b98eb	0.04970638
67	0x3cf6d2d9	0.030129837
68	0x3cacccef	0.021093814
69	0x3d2e1593	0.042501044
70	0x3cbafe42	0.022826318
71	0x3cd76e2a	0.026297648
72	0x3c5d0b9a	0.013491536
73	0x3c493274	0.012280095
74	0x3cea6d2e	0.028616514
75	0x3cb4b78b	0.022060176
76	0x3aee96df	0.0018202922
77	0x3b979718	0.004626166
78	0x3c8d4592	0.017245088
79	0x3cce07f3	0.025150275
80	0x3cdf52e5	0.027261207
81	0x3cc7b360	0.024377525
82	0x3d0b3e52	0.03399498
83	0x3c853b57	0.016263647
84	0x3cc6f011	0.024284394
85	0x3c8858e6	0.016643953
86	0x3cee352a	0.029078085
87	0x3c326d07	0.010890252
88	0x3c2cf70a	0.010556946
89	0x3a969a27	0.0011490033
90	0x3cea776b	0.028621396
91	0x3c8ce4c2	0.017198924
92	0x3cbcbfaf	0.02304062
93	0x3ca35249	0.019936698
94	0x3be2520f	0.006906755
95	0x3cca4082	0.024688963
96	0x3cccf5af	0.025019495
97	0x3d082f65	0.033248324
98	0x3c465e36	0.012107423
99	0x3cb325b9	0.021868574
100	0x3d3cfe42	0.046140917
101	0x3d033ae1	0.032038573
102	0x3cf925b3	0.030413484
103	0x3d156c7c	0.036480412
104	0x3cc5e476	0.02415679
105	0x3ced4d62	0.028967563
106	0x3d08928e	0.03334289
107	0x3bbb8d3d	0.005723624
108	0x3c8f1ff7	0.017471297
109	0xbb97cfb1	-0.004632913
110	0x3cdfccdd	0.027319366
111	0x3d245139	0.040116522
112	0x3cb397ee	0.021923032
113	0x3b75fe30	0.003753554
114	0x3d3ab3ce	0.04558163
115	0x3cc04b7a	0.02347349
116	0x3d368978	0.044564694
117	0x3c929a7a	0.017895926
118	0x3c0b16ec	0.008489352
119	0x377ee53a	1.5192951e-05
120	0x3cfcec44	0.030874379
121	0xbbb350da	-0.0054722847
122	0x3c5a2039	0.013313347
123	0xbbf37673	-0.0074298917
124	0x3ce61c85	0.028089771
125	0x3c0c357e	0.008557675
126	0x3bf44cc6	0.007455441
127	0x3c4bcbca	0.012438724
128	0x3cd5ad4d	0.026083613
129	0x3bc98592	0.006149956
130	0x3c08476d	0.0083178105
131	0x3ce8b280	0.028405428
132	0x3c1fb55f	0.009747832
133	0x3d041c5e	0.032253616
134	0x3d408431	0.047001068
135	0x3c09e24c	0.00841577
136	0x3d1e7b93	0.03869207
137	0x3c3e5308	0.011616476
138	0x3c71f321	0.014767439
139	0x3ccbc97a	0.024876345
140	0x3ce596f3	0.02802608
141	0x3c9c07b6	0.019046646
142	0x3c869fd1	0.016433628
143	0x3b11dd1e	0.002225704
144	0x3c88e427	0.016710354
145	0x3ce70257	0.028199358
146	0x3d1630ff	0.03666782
147	0x3d141ba2	0.036159165
148	0x3c387226	0.011257684
149	0xbbc6607d	-0.006053983
150	0x3bd1a021	0.0063972627
151	0xbc057305	-0.008145099
152	0x3c1c3fe6	0.009536719
153	0x3c96d6ba	0.018412936
154	0x3b92e68a	0.004483049
155	0x3ca44e5c	0.020056896
156	0x3cc4cce3	0.024023479
157	0x3cf0c48a	0.029390592
158	0x3c4705ee	0.01214741
159	0x3d0a08e3	0.03369988
160	0x3c35c25d	0.011093703
161	0x3c227f53	0.009918052
162	0x3c0355b8	0.008016042
163	0x3b19e4d2	0.0023482335
164	0x3cc976bd	0.024592752
165	0x3cc1e3cd	0.023668194
166	0x3c21a27f	0.009865402
167	0x3b130138	0.0022431146
168	0x3cca02fe	0.02465963
169	0x3cdf3f05	0.02725173
170	0x3d033efe	0.032042496
171	0x3cd56f44	0.026054032
172	0x3cbb5683	0.0228684
173	0x3c9fd7e7	0.01951213
174	0x3c6a9e16	0.014319917
175	0xba987d5c	-0.001163404
176	0x3c072347	0.008248157
177	0x3cbc9de7	0.023024512
178	0x3d49b257	0.049242344
179	0x3c20ed17	0.009822152
180	0x3c24bce3	0.0100548
181	0x3ccc45be	0.0249356
182	0x3c060975	0.008180966
183	0x3cd99c5e	0.02656382
184	0x3bc568b9	0.006024447
185	0x3d117c1d	0.035518754
186	0x3bbf6e4f	0.005842007
187	0x3bb5a830	0.005543731
188	0x3c59b88c	0.013288628
189	0x3c91765f	0.017756639
190	0x3c8f9892	0.017528806
191	0x3cac75ff	0.021052359
192	0x3c956250	0.018235356
193	0x395096f3	0.00019892659
194	0xbcdc2fb8	-0.026878223
195	0x3c2e808d	0.010650766
196	0x3ca5410f	0.020172624
197	0x3c907290	0.017632753
198	0x3caa439e	0.020784196
199	0x3b8b9e74	0.0042608324
200	0x3c38a556	0.011269888
201	0x3d331ef1	0.04373068
202	0x3d1a84b3	0.037724208
203	0x3cde9760	0.02717179
204	0x3d02554e	0.031819634
205	0x3d5603e3	0.0522498
206	0x3ceac8e4	0.028660245
207	0x3d2388be	0.03992533
208	0x3d121203	0.03566171
209	0x3ccb3550	0.024805695
210	0x3d57ccf7	0.052685704
211	0x3d6ce6ed	0.057837415
212	0x3c9d4877	0.019199593
213	0x3cd12091	0.025528224
214	0x3d303e0a	0.043027915
215	0x3cb05a4f	0.021527437
216	0x39ad8daf	0.00033102694
217	0x3cd3ec3a	0.025869478
218	0x3cd0522d	0.02542981
219	0x3c33e67a	0.010980243
220	0x3bbf290b	0.00583375
221	0x3d10ea69	0.0353798
222	0x3c8108a7	0.015751196
223	0x3c087c07	0.008330352
224	0x3b70f0fa	0.0036764727
225	0x3c62b688	0.013837464
226	0xbc5603cf	-0.0130624315
227	0xbc96de5e	-0.01841658
228	0xbb3419ea	-0.0027481266
229	0x3b379e93	0.0028018102
230	0x3d0b453f	0.034001585
231	0x3ce5077f	0.027957676
232	0x3d0a46d7	0.033758964
233	0x3d6c531a	0.05769644
234	0x3d447abe	0.04796862
235	0x3d69f04e	0.057113938
236	0x3d934906	0.071916625
237	0x3d52f24a	0.051500596
238	0x3d52f613	0.051504206
239	0x3d071bf2	0.032985635
240	0x3d6387b6	0.055549346
241	0x3d3afc2b	0.045650642
242	0x3d89b47f	0.0672388
243	0x3d6f32a3	0.0583979
244	0x3b4aa6f3	0.0030922263
245	0x3d2bd7ac	0.041953728
246	0x3c54b3d7	0.01298233
247	0x3ce096b1	0.027415605
248	0x3c98d9da	0.018658567
249	0x3b3b1ba2	0.0028550406
250	0x3d0b28e2	0.033974536
251	0x3c1033ba	0.008801395
252	0x3aa80f88	0.0012822011
253	0x3ccf1950	0.025280625
254	0xbc8bab8e	-0.017049577
255	0xbbb24cac	-0.005441269

fc1.bias f4 [10]
0	0xbe8cbf14	-0.2748953
1	0xbeb1209f	-0.345952
2	0xbe7266b6	-0.23671994
3	0xbeab1ab6	-0.33418816
4	0xbe45ebd6	-0.19328246
5	0xbec271a1	-0.37977317
6	0xbea23b7a	-0.31686002
7	0xbf535543	-0.82551974
8	0xbf43d36f	-0.764945
9	0xbe4f2838	-0.20230186

fc2.weight f4 [10, 10]
0	0xbf811965	-1.0085875
1	0xbf50b322	-0.81523335
2	0xbf74105c	-0.9533746
3	0xbf565fdd	-0.83740026
4	0x3e66b008	0.22528088
5	0xbf725be9	-0.94671494
6	0xbf6c3d76	-0.9228128
7	0x3f38a3fe	0.7212523
8	0x3f21451d	0.62996083
9	0xbecf546d	-0.404941
10	0x3f1cf755	0.613149
11	0x3e879173	0.26478156
12	0x3e544a11	0.20731379
13	0x3eb5381e	0.35394377
14	0xbec37b50	-0.38180017
15	0x3f05f6a9	0.523295
16	0x3ec164e8	0.37772298
17	0xbf5f31bc	-0.87185264
18	0xbf62e799	-0.8863464
19	0xbea7ad97	-0.32749626
20	0x3ea43fe4	0.32079995
21	0x3ed41522	0.41422373
22	0xbe8151c2	-0.2525769
23	0x3edbe60d	0.42948952
24	0xbf93ae65	-1.1537596
25	0xbdceaa0a	-0.10091026
26	0xbd0cbd9e	-0.03436052
27	0x3edc9c9b	0.4308823
28	0x3f53a8cd	0.82679445
29	0x3f05458d	0.5205925
30	0xbe07142b	-0.13191287
31	0x3ee34977	0.44391987
32	0xbe4b5544	-0.19856745
33	0x3e67c76c	0.22634667
34	0xbf9fc5a4	-1.248219
35	0x3ebbd823	0.36688337
36	0xbd8ab265	-0.06772307
37	0x3eefc949	0.46833256
38	0x3f25fa59	0.64835125
39	0x3ec8550d	0.3912739
40	0xbeb7feee	-0.35936683
41	0xbf1fa15a	-0.6235558
42	0xbf27266d	-0.6529301
43	0xbcfc7b09	-0.030820386
44	0x3faa07ef	1.3283671
45	0xbf519345	-0.8186534
46	0xbf25197a	-0.64492
47	0xbe51a364	-0.20472485
48	0xbf51064d	-0.8165024
49	0xbfa090f3	-1.2544235
50	0xbf637ae0	-0.8885937
51	0xbf81e3d6	-1.0147655
52	0xbec5fd41	-0.3866978
53	0xbf854c6f	-1.0413951
54	0x3f358b04	0.70915246
55	0xbf13e010	-0.5776377
56	0xbe0911ec	-0.13385743
57	0xbf47c2c2	-0.7803155
58	0xbf1d2ef6	-0.6139978
59	0xbf07a197	-0.5298094
60	0x3f06d931	0.5267516
61	0x3e67a445	0.22621258
62	0x3f054fe1	0.5207501
63	0x3ec18ec6	0.3780424
64	0xbf6151d2	-0.8801547
65	0x3e4745df	0.19460247
66	0x3f1ce8e8	0.61292887
67	0xbf4c6472	-0.7984077
68	0xbf84f9b0	-1.0388699
69	0xbe55184b	-0.20810048
70	0xbf343535	-0.7039369
71	0xbf66829d	-0.9004305
72	0xbf5873fc	-0.8455198
73	0xbf90004a	-1.1250088
74	0xbf32ea85	-0.698891
75	0xbf1d85a2	-0.6153203
76	0xbf80b418	-1.005496
77	0x3f2171f9	0.63064533
78	0x3f2e8efa	0.68186915
79	0x3eae6e95	0.34068742
80	0x3df215f1	0.11820591
81	0x3edd1d43	0.43186387
82	0x3ea0e0dc	0.31421554
83	0x3ec61a77	0.38692066
84	0xbf66c4ae	-0.9014386
85	0x3eb416f4	0.35173762
86	0x3eef76c9	0.46770313
87	0xbee64207	-0.4497225
88	0xbee6dfec	-0.45092714
89	0x3ede8ff7	0.4346921
90	0xbf41de1f	-0.75729555
91	0xbed84bec	-0.42245424
92	0xbf960760	-1.1721001
93	0xbed9d455	-0.4254481
94	0xbea9dfaa	-0.33178455
95	0xbf58dec6	-0.84714925
96	0xbf4aa5ae	-0.7915906
97	0x3f852ce3	1.0404323
98	0x3f4c36e1	0.7977124
99	0xbe9fd0f8	-0.31214118

fc2.bias f4 [10]
0	0xbe0ac9cb	-0.1355354
1	0xbebbed52	-0.367045
2	0xbf69bf72	-0.9130775
3	0xbf00f745	-0.50377303
4	0x3e8d8fe3	0.2764884
5	0x3f2c90e1	0.6740857
6	0xbf23b8e9	-0.63954026
7	0xbe945219	-0.28968886
8	0xbf17f45b	-0.5935723
9	0xbec2ad75	-0.38022962

out.weight f4 [10, 10]
0	0x3f0b451e	0.5440234
1	0x3db199f4	0.08671942
2	0xbf26434e	-0.6494645
3	0xbf1424ba	-0.5786854
4	0x3f952bc0	1.1653976
5	0x3f8c7401	1.0972902
6	0xbe37cd8c	-0.17949504
7	0x3bd90b83	0.0066236868
8	0xbe601491	-0.21882845
9	0x3d783427	0.06059661
10	0x3f7f0caa	0.996287
11	0xbf0d6884	-0.55237603
12	0x3ed5c923	0.41755018
13	0x3ea38944	0.31940663
14	0x3d976cab	0.07393774
15	0xbe88ce26	-0.2671978
16	0xbf48b601	-0.78402716
17	0x3f81fd80	1.0155487
18	0xbe354055	-0.17700322
19	0x3f8bb50d	1.0914627
20	0xbed90cbc	-0.42392528
21	0x3eb31cdc	0.34982955
22	0x3c2cf6f1	0.010556922
23	0xbd12508b	-0.035721343
24	0x3e385b6c	0.18003625
25	0xbdb32223	-0.087467454
26	0x3e7db618	0.24776495
27	0xbf2377a3	-0.63854426
28	0x3e8d2f90	0.2757535
29	0xbf33d8de	-0.7025279
30	0xbec87418	-0.39151073
31	0x3e092f56	0.13396963
32	0x3eb2daa8	0.34932446
33	0x3e612061	0.21985008
34	0xbed31474	-0.41226542
35	0xbf49157e	-0.7854842
36	0xbdd72146	-0.10504393
37	0xbebb6448	-0.36599946
38	0x3e2c06a6	0.16799411
39	0xbe3456c0	-0.17611217
40	0xbf171833	-0.590213
41	0x3ee93c33	0.4555374
42	0x3e0eb08f	0.1393454
43	0x3d87028b	0.06592282
44	0xbea878f7	-0.3290479
45	0xbeb5875e	-0.3545484
46	0x3ec3a1b8	0.3820932
47	0xbf323cc6	-0.6962398
48	0x3eb6d075	0.35705915
49	0xbf4dcdfc	-0.8039243
50	0xbf27db55	-0.6556905
51	0x3ea25196	0.3170287
52	0x3e9b0531	0.30277398
53	0x3dde2115	0.10846154
54	0x3d05db7c	0.03268002
55	0xbf62f2a6	-0.886515
56	0x3dca4aaf	0.09877526
57	0xbf37b7e1	-0.7176495
58	0x3e53029b	0.20606463
59	0xbea0cfd2	-0.31408554
60	0xbf85781c	-1.042728
61	0x3e7c7ed7	0.2465776
62	0x3f092402	0.5357057
63	0x3ed27002	0.4110108
64	0xbfa4274a	-1.282449
65	0xbfadb988	-1.3572245
66	0x3e0d57fa	0.13803092
67	0xbee7908b	-0.45227465
68	0x3eaef871	0.3417392
69	0xbf25343a	-0.64532816
70	0xbeacc90d	-0.3374714
71	0x3e8a9df1	0.27073625
72	0xbd153328	-0.03642574
73	0x3d6ae848	0.057350427
74	0xbf281be2	-0.65667546
75	0x3e0d9638	0.13826835
76	0x3e864c3b	0.26230034
77	0xbcd2dd6b	-0.025740346
78	0x3eab1481	0.3341408
79	0xbf09b2cb	-0.5378844
80	0x3f74dd8f	0.9565057
81	0xbe13980d	-0.14413472
82	0xbf0e3ace	-0.5555848
83	0xbf031d44	-0.5121653
84	0x3fa80877	1.3127583
85	0x3f70fe21	0.9413777
86	0xbf16e5fc	-0.5894468
87	0x3ed7f573	0.4217945
88	0xbf025b24	-0.5092032
89	0x3f25327d	0.64530164
90	0x3f814782	1.0099947
91	0xbf13e644	-0.5777323
92	0x3e752f84	0.23943907
93	0x3e6b35fd	0.22969814
94	0x3d2161df	0.039399978
95	0x3e932661	0.28740218
96	0xbf4464ee	-0.76716506
97	0x3fa57e33	1.2929138
98	0xbe34c4fa	-0.17653266
99	0x3f735189	0.9504629

out.bias f4 [10]
0	0x3e32746a	0.17427221
1	0xbea61bb6	-0.32443017
2	0x3e52ce71	0.20586564
3	0x3e973c8a	0.29538375
4	0x3c47b6a7	0.012189544
5	0x3e7315f3	0.23738842
6	0x3d2ce05f	0.042206164
7	0x3e130453	0.14357118
8	0xbcf559b9	-0.02995001
9	0xbec4cd8e	-0.38438076
